best_cvae_mlp_model.pth (torch, 858234 bytes, 20 tensors)

encoder.0.weight f4 [128, 794]
0.0024870604 -0.02205038 -0.02709242 -0.032433216 0.024063502 0.0016502899 -0.020294145 0.002641434
-0.011886558 0.020917822 0.031715255 -0.0346636 0.019204194 0.033279724 0.07619885 0.023972088
-0.007022783 -0.0119262105 -0.004918294 0.02018824 -0.005066191 -0.019512292 -0.0022318675 0.028721912
-0.02438368 -0.022245241 0.0039551095 0.0018203084 -0.015521721 0.0024117983 -0.017065616 0.034318943
-0.047135863 -0.10567539 -0.13505495 -0.11535914 -0.117597595 -0.08159552 -0.06955827 -0.048442457
-0.09249905 -0.05774113 -0.08940548 -0.08484935 0.0058503742 -0.038587708 -0.036777515 0.0665527
0.06751205 -0.09250017 -0.06436016 -0.08533233 -0.021179723 0.026844554 -0.0049125063 -0.035197686
-0.024940785 0.027727522 0.089819945 0.09045896 -0.10231393 -0.1589274 0.036132492 -0.062820904
-0.027605971 -0.06754653 -0.05296286 -0.05532347 0.034690768 0.027730444 0.019981157 -0.020329589
0.05751436 0.16662464 0.045721192 0.062269393 0.05983091 0.13635175 0.077737875 0.012480512
-0.003952216 0.005141959 0.0059386166 0.007765982 0.02781518 0.004182998 0.14736627 0.006790493
-0.15261112 -0.22009097 -0.10727585 -0.075124 -0.08536871 -0.074193396 0.07552337 0.0491265
-0.016917717 -0.073854655 -0.013415306 0.022381596 -0.017192975 0.061222464 0.056637924 -0.015904121
-0.011405861 0.018133836 0.057988334 0.05683196 0.044385202 -0.014887485 0.17616428 -0.003634677
0.012772576 0.021600341 0.1786793 0.03476126 0.030814327 -0.10516269 -0.017696857 -0.052211367
-0.0597643 -0.04907366 0.0007387128 0.011066807 -0.03707502 -0.056020573 -0.02374562 -0.03591822
-0.021649053 -0.0002492391 0.011793694 0.03619139 0.101376906 0.10782094 0.10082652 0.025260601
0.12791152 0.06438191 -0.09848627 -0.07763453 0.00016055895 -0.03036556 0.0124959275 0.057533436
0.040297892 -0.050483402 -0.04373172 -0.05932009 -0.10055467 -0.091310285 -0.035290197 -0.011153254
0.03167778 0.030307952 0.040880315 0.064871125 0.008119456 -0.018084396 -0.016128296 0.068233386
0.112755775 0.11982815 0.09597313 0.11228457 0.086778186 0.08051113 0.06955852 -0.0012436316
-0.015715482 -0.051373217 0.038129244 -0.08784397 0.023077684 -0.0553987 -0.03655627 -0.09403032
-0.07815021 -0.074321 -0.0111201275 0.039613944 -0.025628403 -0.00462411 -0.040290464 0.0019892512
0.009687356 0.012102955 0.009374225 0.07018501 0.09697908 0.11245465 0.1459956 0.13556664
0.15988706 0.12489289 0.020791715 -0.00046806695 0.0073437416 0.026016492 -0.019269304 -0.020573445
0.018291777 -0.05996769 -0.079677045 -0.048251465 -0.036560066 0.014497571 -0.010712884 0.013187757
0.016886111 -0.0252449 0.020652484 0.0026038766 -0.044182755 0.013472056 0.008504446 0.0149978995
0.031864926 0.057013605 0.10101213 0.14474756 0.059687875 0.085956946 -0.020312209 -0.02575438
0.05192109 0.008307995 -0.075174145 -0.05604555 0.035133556 -0.020189226 -0.06134102 -0.0908566
0.01042981 0.016522031 -0.01786418 0.019745028 -0.022859875 -0.02027443 0.011843868 -0.0247097
-0.07657567 -0.064975254 -0.028337685 0.009897592 -0.012971711 0.0071796016 0.04571994 0.095594876
0.15800531 0.12497842 0.07947547 0.04121294 0.00646918 0.022581216 -0.019852402 -0.01019513
00000000: f3fd 223b 00a3 b4bc ecf0 ddbc b1d8 04bd
00000010: d220 c53c 8a4e d83a e83f a6bc e91b 2d3b
00000020: d6bf 42bc da5b ab3c dbe7 013d 6bfb 0dbd
00000030: 1d52 9d3c 5250 083d 250e 9c3d 1d61 c43c
00000040: 601f e6bb 2766 43bc a429 a1bb cf61 a53c
00000050: 4a02 a6bb 3ed8 9fbc 8644 12bb 374a eb3c
00000060: 49c0 c7bc a73b b6bc dd99 813b 6a97 ee3a
00000070: d14e 7ebc 430f 1e3b 31cd 8bbc 0592 0c3d
00000080: 8911 41bd 576c d8bd d84b 0abe 6a41 ecbd
00000090: 02d7 f0bd 8d1b a7bd 9174 8ebd 996b 46bd
000000a0: 2470 bdbd f781 6cbd 381a b7bd 7fc5 adbd
000000b0: 7fb4 bf3b 250e 1ebd 05a4 16bd c84c 883d
000000c0: c243 8a3d bb70 bdbd 42cf 83bd b7c2 aebd
000000d0: 1981 adbc 1ce9 db3c 17f9 a0bb 732b 10bd
000000e0: 9e50 ccbc d424 e33c 85f3 b73d 8c42 b93d
000000f0: f789 d1bd ddbd 22be aaff 133d 3fa8 80bd
00000100: eb25 e2bc d655 8abd 95ef 58bd dd9a 62bd
00000110: e817 0e3d f52a e33c 86af a33c 3d8a a6bc
00000120: 2d94 6b3d a69f 2a3e 2546 3b3d 310e 7f3d
00000130: 4211 753d cb9f 0b3e 0935 9f3d 107b 4c3c
00000140: 9781 81bb e17d a83b ba98 c23b c779 fe3b
00000150: a9dc e33c 8811 893b 2fe7 163e c982 de3b
00000160: 1746 1cbe 875f 61be 71b3 dbbd 9dda 99bd
00000170: cad5 aebd b5f2 97bd ffab 9a3d de38 493d
00000180: 0697 8abc 1c41 97bd dfcb 5bbc 9c59 b73c
00000190: 48d8 8cbc 68c4 7a3d 2bfd 673d 5c49 82bc
000001a0: a6df 3abc 698d 943c 2d85 6d3d a1c8 683d
000001b0: 42cd 353d a3ea 73bc 6964 343e c333 6ebb
000001c0: 1144 513c 33f3 b03c b5f7 363e d361 0e3d
000001d0: 546e fc3c 895f d7bd 00f9 90bc 96db 55bd
000001e0: 69cb 74bd 7601 49bd 2da6 413a 8e51 353c
000001f0: fadb 17bd d475 65bd 2d86 c2bc fc1e 13bd
00000200: 5b59 b1bc 4eac 82b9 573a 413c 6c3d 143d
00000210: b29e cf3d 3ad1 dc3d 227e ce3d 52ef ce3c
00000220: 3dfb 023e aada 833d 2bb3 c9bd dafe 9ebd
00000230: b75b 2839 32c1 f8bc b8bb 4c3c 2ea8 6b3d
00000240: 670f 253d afc7 4ebd 0820 33bd 9ff9 72bd
00000250: 9bef cdbd e300 bbbd 748c 10bd 23bc 36bc
00000260: 8fc0 013d 6248 f83c 1e72 273d 27db 843d
00000270: 7707 053c ba25 94bc 7d1f 84bc f2bd 8b3d
00000280: 80ec e63d 7668 f53d 8f8d c43d 74f5 e53d
00000290: c3b8 b13d 05e3 a43d b374 8e3d 5a01 a3ba
000002a0: c1bd 80bc b96c 52bd 692d 1c3d 8ae7 b3bd
000002b0: 690d bd3c bfe9 62bd 07bc 15bd f892 c0bd
000002c0: 380d a0bd 9c35 98bd 3231 36bc 3b42 223d
000002d0: a8f2 d1bc d985 97bb 9d07 25bd 195e 023b
000002e0: b7b7 1e3c 794b 463c 5996 193c 29bd 8f3d
000002f0: f89c c63d a04e e63d df7f 153e fbd1 0a3e
00000300: 6fb9 233e d8c7 ff3d 6353 aa3c e266 f5b9
00000310: c5a3 f03b 8a20 d53c a9da 9dbc a489 a8bc
00000320: a3d8 953c aea0 75bd b82d a3bd 54a3 45bd
00000330: 02c0 15bd 3887 6d3c 1885 2fbc 7611 583c
00000340: be54 8a3c 64ce cebc 662f a93c cda5 2a3b
00000350: faf8 34bd e6b9 5c3c 3b56 0b3c c0b9 753c
00000360: cc84 023d 1987 693d 73df ce3d b438 143e
00000370: 467b 743d 320a b03d ca65 a6bc d9fa d2bc
00000380: 35ab 543d 421e 083c e7f4 99bd 0590 65bd
00000390: 34e8 0f3d e063 a5bc b940 7bbd 0613 babd
000003a0: cbe1 2a3c 3659 873c e757 92bc 53c0 a13c
000003b0: a244 bbbc 9016 a6bc c80c 423c ff6b cabc
000003c0: b4d3 9cbd bf11 85bd 6f24 e8bc 8229 223c
000003d0: 4d87 54bc dd42 eb3b d544 3b3d 3fc7 c33d
000003e0: 25cc 213e b0f4 ff3d 09c4 a23d e6ce 283d
000003f0: 6afb d33b 3efc b83c 81a1 a2bc 7909 27bc

encoder.0.bias f4 [128]
-0.24730676 0.38233373 0.29033887 -0.030317584 0.13622761 0.0044268114 -0.029796053 -0.054094777
-0.018865433 -0.04147595 -0.019747412 0.5245372 0.5750629 0.1208318 -0.019161379 -0.0074461703
-0.03281234 0.7485484 -0.012766877 0.65090495 -0.041094597 0.017501691 -0.04089496 0.0043078167
-0.008399531 0.7611544 -0.008781221 -0.03224506 0.42028132 0.787886 0.75774974 -0.048104603
-0.041419636 -0.009157518 0.2575685 0.55970836 0.30958423 0.76541543 -0.014521989 0.7470274
-0.0028121364 -0.55119646 0.7348662 0.28454283 0.54125184 -0.02119487 0.01408533 -0.031816196
-0.027248334 -0.050332803 0.3232719 0.29827902 0.021460216 0.4587827 -0.023377918 -0.12887096
-0.046129066 -0.016522558 0.732794 0.56474113 0.259281 0.52092916 0.014076373 -0.02223195
0.30000767 0.7171677 0.017612452 0.23062162 -0.031331107 -0.015190607 -0.013621487 -0.04364202
-0.03282352 0.37301844 -0.034833085 0.3192091 -0.19842346 1.3174696 0.3163225 0.42243177
-0.005022752 0.00865522 0.64073765 0.37063652 0.59086823 -0.60452044 -0.013663151 0.013889898
0.77075464 0.06900112 -0.02228893 0.356292 -0.06294843 0.34652248 0.40567648 0.14656585
0.98030436 0.9735162 0.5045385 0.6849704 0.803599 0.26016802 -0.049439605 0.016504608
0.37292787 0.5903129 -0.015219388 0.6728561 -0.01452856 0.006058663 0.3321797 0.10291146
0.47149748 -0.035157934 -0.2520977 0.6738392 0.30298302 0.66163206 0.52772176 -0.012930929
0.65321046 0.4896554 0.012411936 0.014964568 -0.029112346 0.5421336 0.77530926 0.34412962
00000000: fc3d 7dbe 3fc1 c33e 4ca7 943e 955c f8bc
00000010: 407f 0b3e c90e 913b da16 f4bc 7c92 5dbd
00000020: ae8b 9abc b0e2 29bd 53c5 a1bc 1248 063f
00000030: 5237 133f aa76 f73d 53f8 9cbc 01ff f3bb
00000040: 3b66 06bd dea0 3f3f 2a2c 51bc b5a1 263f
00000050: cf52 28bd b55f 8f3c 7981 27bd 9628 8d3b
00000060: 309e 09bc 04db 423f 1cdf 0fbc 6513 04bd
00000070: 1d2f d73e e6b2 493f e3fb 413f 5509 45bd
00000080: a3a7 29bd 6a09 16bc 05e0 833e 0c49 0f3f
00000090: d381 9e3e 44f2 433f a3ed 6dbc 303d 3f3f
000000a0: d24b 38bb 361b 0dbf 3120 3c3f 99af 913e
000000b0: 7b8f 0a3f dda0 adbc 28c6 663c b351 02bd
000000c0: e637 dfbc c529 4ebd e583 a53e 07b8 983e
000000d0: 56cd af3c 91e5 ea3e 0c83 bfbc c0f6 03be
000000e0: d5f1 3cbd 515a 87bc 6398 3b3f e092 103f
000000f0: 7bc0 843e 9d5b 053f 96a0 663c c71f b6bc
00000100: 9b9a 993e 4d98 373f fd47 903c 1328 6c3e
00000110: 0c55 00bd 06e2 78bc a82c 5fbc fac1 32bd
00000120: f571 06bd 46fc be3e 23ad 0ebd 606f a33e
00000130: 852f 4bbe d8a2 a83f 06f5 a13e fa48 d83e
00000140: e695 a4bb a0ce 0d3c 6207 243f 12c4 bd3e
00000150: 2443 173f dac1 1abf 69db 5fbc 7492 633c
00000160: 2d50 453f 7650 8d3d 4697 b6bc e86b b63e
00000170: 1beb 80bd 656b b13e d4b4 cf3e 5c15 163e
00000180: 3af5 7a3f 5c38 793f 6f29 013f 385a 2f3f
00000190: aab8 4d3f be34 853e 2f81 4abd ac34 873c
000001a0: 67f0 be3e bf1e 173f bd5a 79bc 4c40 2c3f
000001b0: 3309 6ebc c087 c63b 7513 aa3e 3ec3 d23d
000001c0: 1e68 f13e c401 10bd f312 81be ba80 2c3f
000001d0: 9720 9b3e b860 293f c618 073f 3fdc 53bc
000001e0: cd38 273f 1db4 fa3e 6f5b 4b3c f32d 753c
000001f0: 047d eebc 45c9 0a3f ab7a 463f c231 b03e

encoder.2.weight f4 [32, 128]
-0.16314636 -0.0530322 -0.023935232 -0.0022934023 -0.013938447 0.033632457 -0.12381732 -0.11183251
0.07704721 0.044362973 0.06046992 0.20880902 0.017242616 0.07139526 0.044326477 0.025645424
0.041689023 0.09638869 0.034417823 -0.090838395 -0.0779675 -0.022138476 -0.024890386 -0.051993616
-0.021086283 0.17976761 0.060531814 -0.058550198 -0.19838978 0.17081788 -0.27476382 -0.008678164
-0.00054437504 0.055767257 0.15472887 -0.15727353 0.09412923 -0.2720439 -0.0036553352 -0.07473673
0.06457771 -0.05219629 -0.12887338 0.11827301 -0.14607204 -0.023595829 -0.07961791 -0.034224406
0.004595278 0.07873665 -0.28001434 -0.2149689 -0.07729671 -0.27831855 -0.038341574 0.05393921
0.080311656 0.033939138 0.11389994 0.0706383 -0.26498705 -0.08428493 0.018962229 -0.055243406
-0.05125621 -0.32515225 0.015753148 -0.07462435 -0.015489132 -0.02139143 0.07038751 0.008825393
0.022441259 -0.061106663 0.013303133 -0.242803 -0.032852627 0.079940446 -0.12278004 -0.18772545
0.085200064 0.025359547 0.1198334 0.21844694 -0.12695538 -0.25106823 -0.071749784 -0.0003197532
0.28859746 0.019278055 0.006206154 -0.054701373 -0.19597363 0.023619138 -0.077593885 0.117523775
0.14522734 0.23624445 -0.15028463 -0.24680568 0.003691577 0.16038819 0.076880366 0.06320704
-0.16795598 -0.14025114 0.025585981 -0.19429928 -0.03609155 -0.07555301 -0.18336453 -0.13522086
-0.30472827 0.06042925 -0.06983997 0.042207763 -0.09219411 -0.24281423 0.109188184 -0.010960647
-0.0493558 -0.2686643 0.0048425947 -0.021148821 0.07493923 0.08725065 0.36952594 0.2664303
0.071882956 -0.064342655 0.093274094 -0.018363763 0.19487414 0.056007057 -0.10111407 -0.09741229
0.04284276 -0.0047211703 0.008432023 0.18504436 0.058999375 0.01859518 -0.07580045 -0.022674438
0.077749714 0.2545303 0.074351646 -0.3537103 -0.001996232 -0.0015054599 -0.05327228 0.0013213505
-0.05158579 0.008216064 0.054025434 0.09296571 0.1102845 0.16332088 0.29493946 0.0035668223
0.066173725 0.061064877 0.13575102 0.57439417 -0.018973492 0.22302829 -0.05920052 0.15761304
0.022244442 -0.055562202 0.3248185 0.09773295 0.5633858 -0.01745301 -0.0062032025 0.055261508
0.050440174 -0.068145186 0.04195209 -0.053817924 -0.05683502 0.14704633 -0.04802161 0.07073941
0.07262666 -0.06904485 0.18672341 0.03629998 -0.05172665 -0.14266258 0.010155275 0.04902782
0.16232331 -0.022322636 0.0028804776 0.21711066 -0.05529249 0.021184226 0.028807893 -0.03569253
0.020520134 0.07352423 -0.031277325 0.10179252 -0.11952562 0.06638453 -0.064855434 0.3422543
0.012572442 0.0587242 0.00033906262 0.06481785 -0.41535 0.0413262 0.070901275 -0.02842996
-0.29837185 0.06232493 -0.05308969 0.28474534 0.054133598 -0.14821224 -0.1185348 -0.03185948
0.17929476 0.06827862 -0.13005577 0.100238726 0.009362599 -0.46894833 -0.0118269175 -0.026648866
-0.01811737 0.46825784 -0.0013614292 -0.00855851 0.007821627 -0.020361252 -0.09787117 -0.109155454
0.16963495 -0.02656037 -0.06505809 0.4480787 0.04956043 -0.04975906 -0.07886331 -0.007439701
-0.019549936 0.011844526 -0.068476886 -0.0473487 0.064985715 0.107514374 0.049454026 0.10216041
00000000: d70f 27be 4b38 59bd d213 c4bc e84c 16bb
00000010: 165e 64bc 30c2 093d ef93 fdbd 7108 e5bd
00000020: edca 9d3d f3b5 353d 4faf 773d 08d2 553e
00000030: 6340 8d3c ae37 923d ae8f 353d 5a16 d23c
00000040: 1cc2 2a3d 6f67 c53d b4f9 0c3d 7b09 babd
00000050: 6dad 9fbd c05b b5bc ece6 cbbc 42f7 54bd
00000060: 24bd acbc 0015 383e 35f0 773d 55d2 6fbd
00000070: b126 4bbe e2ea 2e3e d8ad 8cbe dc2e 0ebc
00000080: 64b4 0eba 356c 643d 3f71 1e3e 500c 21be
00000090: d3c6 c03d 5749 8bbe 598e 6fbb 920f 99bd
000000a0: 5241 843d c7cb 55bd 62f7 03be 1f39 f23d
000000b0: e993 15be 0a4c c1bc b70e a3bd e42e 0cbd
000000c0: fc93 963b ae40 a13d 0a5e 8fbe cf20 5cbe
000000d0: bd4d 9ebd c57f 8ebe 0e0c 1dbd 5cef 5c3d
000000e0: 707a a43d c403 0b3d 5f44 e93d d0aa 903d
000000f0: 62ac 87be 949d acbd ad56 9b3c e946 62bd
00000100: 08f2 51bd 5b7a a6be bf0c 813c a7d4 98bd
00000110: 21c6 7dbc 153d afbc 5427 903d 6298 103c
00000120: bbd6 b73c fb4a 7abd 62f5 593c 5aa1 78be
00000130: 7a90 06bd d1b7 a33d 1a74 fbbd 1a3b 40be
00000140: 5f7d ae3d d3be cf3c 376b f53d 8eb0 5f3e
00000150: 9700 02be 048c 80be 8df1 92bd 8ca4 a7b9
00000160: 0cc3 933e 03ed 9d3c fe5c cb3b 8c0e 60bd
00000170: 50ad 48be ec7c c13c 8be9 9ebd 4eb0 f03d
00000180: 7ab6 143e 11ea 713e 37e4 19be a1ba 7cbe
00000190: 62ee 713b cd3c 243e 7473 9d3d b172 813d
000001a0: a7fc 2bbe ff9d 0fbe b199 d13c 64f6 46be
000001b0: bcd4 13bd 89bb 9abd e9c3 3bbe 5677 0abe
000001c0: 5805 9cbe a984 773d 4208 8fbd 0ce2 2c3d
000001d0: 44d0 bcbd 4ba4 78be 0e9e df3d 4994 33bc
000001e0: 4f29 4abd 5e8e 89be a1ae 9e3b 4b40 adbc
000001f0: bd79 993d 78b0 b23d 8132 bd3e 8d69 883e
00000200: 5f37 933d 15c6 83bd 7d06 bf3d 9a6f 96bc
00000210: 168d 473e a867 653d e514 cfbd 1880 c7bd
00000220: e47b 2f3d 0cb4 9abb 7826 0a3c 457c 3d3e
00000230: 54a9 713d eb54 983c 443d 9bbd bebf b9bc
00000240: 3e3b 9f3d cc51 823e ad45 983d 8419 b5be
00000250: 37d3 02bb da52 c5ba 0934 5abd 2a31 ad3a
00000260: 9f4b 53bd ac9c 063c c649 5d3d ce64 be3d
00000270: d7dc e13d 973d 273e 4e02 973e 59c1 693b
00000280: 1786 873d 2a1f 7a3d 5102 0b3e 7f0b 133f
00000290: 4c6e 9bbc 8761 643e 3f7c 72bd 5065 213e
000002a0: fa39 b63c 3195 63bd 9c4e a63e 3628 c83d
000002b0: 0d3a 103f 9df9 8ebc 3c44 cbbb e459 623d
000002c0: 5b9a 4e3d b48f 8bbd f4d5 2b3d 2f70 5cbd
000002d0: d7cb 68bd 5093 163e 4fb2 44bd d3df 903d
000002e0: 49bd 943d 6367 8dbd 6c34 3f3e 4aaf 143d
000002f0: 53df 53bd 2416 12be 5062 263c 65d1 483d
00000300: 1538 263e f6dd b6bc 65c6 3c3b 4252 5e3e
00000310: 617a 62bd 8b8a ad3c 88fe eb3c 5532 12bd
00000320: d719 a83c df93 963d a71c 00bd 9978 d03d
00000330: d9c9 f4bd 9df4 873d edd2 84bd f53b af3e
00000340: a5fc 4d3c c988 703d 37c4 b139 39bf 843d
00000350: c1a8 d4be a945 293d b034 913d f3e5 e8bc
00000360: 32c4 98be 6d48 7f3d 9374 59bd 24ca 913e
00000370: 31bb 5d3d f3c4 17be 60c2 f2bd 167f 02bd
00000380: 0c99 373e a9d5 8b3d 572d 05be f649 cd3d
00000390: 9665 193c ff19 f0be b0c5 41bc b94e dabc
000003a0: e16a 94bc 7ebf ef3e fc71 b2ba fe38 0cbc
000003b0: 4826 003c a4cc a6bc ae70 c8bd e58c dfbd
000003c0: c9b4 2d3e 2295 d9bc 2d3d 85bd 926a e53e
000003d0: e1ff 4a3d 28d0 4bbd 1683 a1bd bcc8 f3bb
000003e0: 3027 a0bc 8b0f 423c 9c3d 8cbd b6f0 41bd
000003f0: 3b17 853d 7f30 dc3d 4e90 4a3d 7a39 d13d

encoder.2.bias f4 [32]
0.44208103 0.1943521 0.7643557 0.24433635 0.00879103 -0.112114735 0.45130223 0.058237173
0.3032216 -0.033836 0.10548139 -0.037940115 -0.05275263 0.068454 -0.07875324 0.18533473
0.5191588 0.38010335 0.033660755 -0.08408986 0.29802158 0.7526866 -0.13546626 0.00095828954
-0.023370467 -0.09817443 -0.078890115 0.50925505 -0.12908497 0.727944 -0.15907815 -0.11294956
00000000: 7258 e23e 3d04 473e d1ac 433f 4f33 7a3e
00000010: 4108 103c 699c e5bd 1611 e73e 1a8a 6e3d
00000020: dd3f 9b3e 9e97 0abd a106 d83d 1867 1bbd
00000030: 2413 58bd 9c31 8c3d 6149 a1bd 63c8 3d3e
00000040: 97e7 043f e89c c23e dcdf 093d 4e37 acbd
00000050: 4996 983e 12b0 403f abb7 0abe b935 7b3a
00000060: 6c73 bfbc ad0f c9bd 2491 a1bd 8a5e 023f
00000070: da2e 04be 8a5a 3a3f 62e5 22be 1952 e7bd

encoder.4.weight f4 [16, 32]
-0.17223431 -0.13278706 0.052100353 -0.1761436 -0.06976294 0.11249828 0.08783306 -0.11707823
-0.13115561 -0.03509269 -0.1300144 -0.05971928 0.16214558 -0.048684392 -0.17509393 0.12680802
0.069649644 -0.13408573 0.13868685 -0.11021656 0.11210975 0.042789187 0.12804867 0.105043136
-0.12964608 -0.12414573 -0.11216136 -0.17461942 -0.034111805 0.043100692 -0.069851175 0.10603294
0.022408206 -0.11380357 -0.17371255 -0.16708691 0.07419205 0.010232686 -0.13192947 -0.1892446
0.10934737 0.002070232 -0.06732725 0.05403572 0.039825916 0.008519034 -0.14276156 0.029497402
-0.119613044 -0.058945976 0.12974235 -0.05476336 -0.18657619 0.016623173 0.053612076 -0.15280302
-0.030053575 0.15046582 0.033847105 0.031350065 0.010873234 -0.18263403 0.16033539 -0.12386606
-0.24642225 0.110058025 -0.3662494 0.25640354 -0.06135488 -0.11557056 -0.17186052 0.0099916365
-0.14625543 0.07765447 -0.114478715 0.06162989 0.013207501 -0.0744139 0.09314098 0.06289807
-0.37235147 0.22043861 0.15438595 -0.09477875 0.24589084 0.13576181 -0.092652634 -0.16012111
0.0325063 -0.030802777 0.16104044 0.23782612 0.08725431 0.13775167 0.035423543 0.075073555
0.18005806 -0.06279686 0.13522582 -0.14429201 -0.10343213 -0.12748888 0.013569129 -0.111467764
0.020934094 0.026229426 0.08596151 0.057619203 -0.06525072 -0.122891925 0.05259454 -0.01663361
0.5442114 -0.020890778 -0.018253168 -0.003469131 -0.23138608 0.20402908 0.1105375 -0.08476052
-0.18354619 -0.14906329 -0.085783005 0.11695287 0.047457412 0.12992945 -0.0755317 -0.13672665
0.022007493 0.002849432 0.058162536 -0.20302647 0.16881599 -0.17548639 0.06903074 -0.12017548
0.028505016 0.010288335 0.10346525 0.13802952 -0.13754484 -0.032248095 0.14690162 -0.045425452
-0.083422065 -0.04096284 -0.06640975 -0.020884505 -0.0681719 0.059959427 -0.13702929 -0.046663795
-0.21166654 0.16161773 0.063331224 0.08260658 0.105637975 -0.24115574 -0.05924853 0.09982681
-0.21978317 0.15325531 -0.059500895 0.007857462 -0.019895742 0.12026001 -0.27091193 0.09533144
0.0054929773 -0.038032603 -0.17189541 -0.040946867 -0.17561069 -0.097432844 -0.061609104 -0.007979849
-0.19735898 0.019021712 -0.11809074 0.12289523 0.11482125 0.13593271 -0.017361764 -0.0040310165
-0.11009485 -0.0515738 0.052305907 0.09255432 -0.013177864 0.14046426 -0.13516125 -0.25238386
0.09921019 -0.25267568 0.18189247 -0.020730544 0.12025486 0.17189714 -0.05844454 0.009247736
0.15119065 0.13841392 -0.1599895 0.0014828028 0.106584266 0.06686335 0.07634493 -0.23414704
0.45269948 -0.20549257 -0.12578015 0.15204328 -0.037897054 0.02998029 0.0035137406 -0.061222274
0.12871861 0.11157322 0.16961703 0.10212016 0.09714066 -0.1007783 -0.1212067 -0.06880048
-0.112157986 0.08620965 0.10259929 -0.15803218 0.14513433 -0.16953696 -0.14326689 -0.11479332
-0.14982049 0.13353224 0.038840342 0.123110354 0.1361908 0.03388853 0.020199213 -0.13358012
0.07776135 0.0573234 0.055079754 -0.047730632 0.087786384 -0.09273822 -0.1317592 -0.061073374
-0.154841 0.014104358 0.06305639 0.07576981 -0.022479253 -0.0019223389 -0.06697303 -0.14965303
00000000: 315e 30be 55f9 07be 2e67 553d fd5e 34be
00000010: dfdf 8ebd 8065 e63d d2e1 b33d b6c6 efbd
00000020: a84d 06be 5abd 0fbd 7f22 05be 349c 74bd
00000030: 7e09 263e 4969 47bd d34b 33be f6d9 013e
00000040: 79a4 8e3d c54d 09be ed03 0e3e 38b9 e1bd
00000050: cc99 e53d b743 2f3d 311f 033e db20 d73d
00000060: f1c1 04be 1e40 febd dbb4 e5bd 6fcf 32be
00000070: d2b8 0bbd 5a8a 303d 220e 8fbd cc27 d93d
00000080: 6a91 b73c d911 e9bd b4e1 31be d518 2bbe
00000090: 00f2 973d ffa6 273c 8518 07be 56c9 41be
000000a0: 84f1 df3d bbac 073b dfe2 89bd 8f54 5d3d
000000b0: 8020 233d 6b93 0b3c 1630 12be 89a4 f13c
000000c0: aff7 f4bd 5671 71bd 2edb 043e 8c4f 60bd
000000d0: d40d 3fbe 522d 883c 5698 5b3d 6578 1cbe
000000e0: ea32 f6bc b613 1a3e 43a3 0a3d ed68 003d
000000f0: a625 323c 6a04 3bbe f62e 243e 7dad fdbd
00000100: 1d56 7cbe 1a66 e13d 0b85 bbbe 5347 833e
00000110: 414f 7bbd 42b0 ecbd 34fc 2fbe f6b3 233c
00000120: fcc3 15be 4f09 9f3d d173 eabd a06f 7c3d
00000130: 4664 583c 5166 98bd b3c0 be3d b4d0 803d
00000140: daa4 bebe a9ba 613e 5a17 1e3e 5c1b c2bd
00000150: cfca 7b3e 2505 0b3e aac0 bdbd caf6 23be
00000160: 5325 053d 1b56 fcbc c9e7 243e b188 733e
00000170: 63b2 b23d c60e 0d3e 4718 113d 2ac0 993d
00000180: 2461 383e a49b 80bd a378 0a3e 49c1 13be
00000190: 39d4 d3bd 728c 02be 0d51 5e3c 3649 e4bd
000001a0: fa7d ab3c 18df d63c 970c b03d 1d02 6c3d
000001b0: 2ba2 85bd c3ae fbbd 5f6d 573d 3543 88bc
000001c0: 7051 0b3f 2323 abbc ab87 95bc 5c5a 63bb
000001d0: 79f0 6cbe 00ed 503e 7c61 e23d ec96 adbd
000001e0: 88f3 3bbe 0ca4 18be 00af afbd fc84 ef3d
000001f0: b462 423d 3a0c 053e 5db0 9abd 1202 0cbe
00000200: 0f49 b43c 89bd 3a3b d73b 6e3d 2ce6 4fbe
00000210: 19de 2c3e b4b2 33be fd5f 8d3d 901e f6bd
00000220: 5a83 e93c 6890 283c 97e5 d33d 9c57 0d3e
00000230: 8ed8 0cbe 9416 04bd 616d 163e 0a10 3abd
00000240: 30d9 aabd a7c8 27bd d601 88bd fb15 abbc
00000250: b69d 8bbd 0498 753d 6851 0cbe 8922 3fbd
00000260: 1dbf 58be 1e7f 253e cdb3 813d a32d a93d
00000270: b958 d83d 88f1 76be 96ae 72bd 0072 cc3d
00000280: d70e 61be f6ee 1c3e 36b7 73bd 96bc 003c
00000290: 65fc a2bc e14a f63d f8b4 8abe 213d c33d
000002a0: 6ffe b33b 13c8 1bbd 5a05 30be e7b7 27bd
000002b0: 4ad3 33be df8a c7bd d459 7cbd eabd 02bc
000002c0: 7918 4abe 6cd3 9b3c 8fd9 f1bd 7fb0 fb3d
000002d0: 6727 eb3d f231 0b3e 423a 8ebc 9e16 84bb
000002e0: 6979 e1bd 0d3f 53bd b83e 563d 1f8d bd3d
000002f0: f8e7 57bc ddd5 0f3e b667 0abe 7538 81be
00000300: b62e cb3d b55e 81be 0542 3a3e 1ad3 a9bc
00000310: 2e48 f63d ce05 303e 8b63 6fbd d183 173c
00000320: b9d1 1a3e 61bc 0d3e 4ad4 23be 9b5a c23a
00000330: da48 da3d a7ef 883d bb5a 9c3d 3ec4 6fbe
00000340: 3ac8 e73e a56c 52be 83cc 00be 3cb1 1b3e
00000350: f139 1bbd 3a99 f53c c946 663b 35c4 7abd
00000360: d0ce 033e 8080 e43d 16b0 2d3e 6024 d13d
00000370: aff1 c63d da64 cebd 383b f8bd 44e7 8cbd
00000380: 16b3 e5bd af8e b03d 941f d23d 30d3 21be
00000390: 189e 143e 199b 2dbe 8eb4 12be c318 ebbd
000003a0: 8b6a 19be adbc 083e 0d17 1f3d 4821 fc3d
000003b0: 9a75 0b3e b3ce 0a3d d278 a53c 3ac9 08be
000003c0: 5841 9f3d f1cb 6a3d 4f9b 613d 3281 43bd
000003d0: 59c9 b33d 89ed bdbd e2eb 06be 1328 7abd
000003e0: a48e 1ebe f715 673c b523 813d 342d 9b3d
000003f0: 6926 b8bc fdf6 fbba 2829 89bd a53e 19be

encoder.4.bias f4 [16]
-0.01813267 -0.014575828 0.24932997 0.52306753 -0.05049492 0.032068655 -0.18502371 -0.070535004
0.15863015 0.31383073 -0.08229655 -0.1561479 0.35339767 -0.13377148 0.3147119 0.040925138
00000000: f78a 94bc 74cf 6ebc 5b50 7f3e c1e7 053f
00000010: c3d3 4ebd 6c5a 033d db76 3dbe a874 90bd
00000020: f16f 223e 6cae a03e 188b a8bd 3ce5 1fbe
00000030: 8af0 b43e 64fb 08be eb21 a13e 1ea1 273d

fc_mu.weight f4 [2, 16]
-0.1925072 -0.13126768 -0.14154324 0.22353758 -0.095497176 0.25934216 0.15728782 -0.1379008
-0.184666 0.39946046 0.058739983 0.18920437 -0.29762524 -0.18275544 0.30599874 -0.015695168
-0.21473217 -0.1516005 -0.228129 0.20799235 0.15931915 -0.21787219 0.00024828233 -0.19894755
0.29695714 0.07043605 0.1294784 0.03662366 -0.02194878 -0.03166318 -0.09025279 -0.21084434
00000000: 9c20 45be 096b 06be b6f0 10be 09e7 643e
00000010: 0694 c3bd 7fc8 843e 0f10 213e de35 0dbe
00000020: 1519 3dbe 1586 cc3e 5699 703d cabe 413e
00000030: 5662 98be 3e24 3bbe deab 9c3e 2793 80bc
00000040: c0e2 5bbe 293d 1bbe a69a 69be f2fb 543e
00000050: 8f24 233e e319 5fbe e42b 8239 e8b8 4bbe
00000060: c40a 983e c740 903d fc95 043e b102 163d
00000070: eecd b3bc 40b1 01bd 74d6 b8bd 94e7 57be

fc_mu.bias f4 [2]
0.0907717 0.12895143
00000000: 83e6 b93d d80b 043e

fc_logvar.weight f4 [2, 16]
0.07182786 0.20194452 -0.24515012 0.1711793 -0.16261388 0.22723453 0.25973007 -0.100946605
-0.36870417 -0.43678188 -0.012446885 0.19289422 -0.07603518 0.081784606 0.30560374 -0.33062944
0.22931907 -0.09050935 -0.3400271 0.3586574 0.0519753 0.14316885 0.43952632 0.23621097
-0.19202968 -0.59610504 0.058766846 0.035079703 -0.30014214 0.1379844 -0.023901535 0.08617944
00000000: 7c1a 933d 8bca 4e3e a208 7bbe a049 2f3e
00000010: 4184 26be 2bb0 683e 57fb 843e 18bd cebd
00000020: cbc6 bcbe e0a1 dfbe 05ee 4bbc 1086 453e
00000030: 55b8 9bbd b07e a73d 1878 9c3e 4348 a9be
00000040: 9ed2 6a3e f75c b9bd 0818 aebe f1a1 b73e
00000050: 0de4 543d db9a 123e 9809 e13e 4ae1 713e
00000060: 6ea3 44be 579a 18bf 81b5 703d bcaf 0f3d
00000070: 3bac 99be c84b 0d3e 27cd c3bc d97e b03d

fc_logvar.bias f4 [2]
-0.24558437 -0.47878838
00000000: 787a 7bbe c023 f5be

fc_class.weight f4 [10, 16]
-0.10631958 0.05175812 0.33207667 0.34849226 0.11587642 -0.08079045 -1.9677353 0.21249044
0.5691739 -0.41462052 -0.064987354 0.19138166 0.20607655 0.10984361 -1.2472847 -0.39435712
-0.19641805 -0.05872972 -0.4047767 -0.56252015 0.047188327 -1.9923953 0.4196202 0.090032876
-0.44956622 -0.64160097 0.1473391 -0.17088072 0.7421667 0.18042204 2.471906 0.4832408
-0.20928404 0.10658122 0.0037601271 -0.5866753 -0.20971231 0.35190788 1.0537858 -0.051952988
0.24042194 0.017946357 0.28204572 -0.03257845 -0.3098257 -0.13767669 -0.61034375 0.22934148
-0.11246285 -0.22616431 -0.56390244 -0.690751 0.020450212 -2.3931434 -1.735434 -0.18956158
0.28298643 0.20744497 0.11376797 -0.051267494 0.11728005 0.18229795 0.24144837 0.8786214
0.1983043 0.13182843 0.54880214 -0.09197456 -0.10285493 1.1841445 0.87650806 -0.13087386
0.047315177 0.070343226 0.10512273 -0.10292833 -0.191408 -0.19278559 -1.0635121 -0.6439686
0.13255122 0.1075677 -0.44159496 -0.5333929 -0.07369043 -0.6633203 -1.5621836 0.025828332
0.34101802 -0.18323898 -0.21465318 0.104692414 0.23511969 0.21943629 -0.46729994 0.6581651
-0.14583364 -0.15114239 0.19181702 0.10521748 0.06641666 0.6880615 0.9501075 -0.16253266
-0.03493022 -0.03583257 0.14613214 -0.054372173 0.12079815 -0.19784427 -0.24348769 -0.18577413
-0.14294815 -0.07677249 0.20937131 -0.39652398 -0.0044146213 0.9452164 0.019001244 -0.120877504
-0.30776915 0.17853394 -0.018143583 0.113744624 0.43758506 -0.054537386 -0.59208816 -0.5618406
-0.108840406 -0.31173477 -0.040629037 -1.1047254 -0.026834898 -0.34995237 -0.8218017 -0.025463104
0.10987704 0.43005833 -0.2837872 -0.16383706 -0.50014323 0.07939571 -0.876943 0.46583754
-0.06847155 0.18732652 0.5830422 0.16109483 0.21057391 0.9223815 0.6097308 -0.18228722
-0.030616956 0.09436143 0.03816029 -0.046325922 -0.11812213 -0.16995895 -0.26190293 -0.70114666
00000000: 14be d9bd 5300 543d f405 aa3e 946d b23e
00000010: 9e50 ed3d 7775 a5bd c0de fbbf 1897 593e
00000020: 61b5 113f 2449 d4be 1718 85bd 8ef9 433e
00000030: bb05 533e b0f5 e03d 06a7 9fbf 2de9 c9be
00000040: d021 49be 938e 70bd e43e cfbe 5201 10bf
00000050: 8c48 413d cf06 ffbf 75d8 d63e 2863 b83d
00000060: 8b2d e6be f63f 24bf 10e0 163e 5bfb 2ebe
00000070: a3fe 3d3f 8ec0 383e b533 1e40 576b f73e
00000080: 8e4e 56be 4147 da3d 776c 763b 5a30 16bf
00000090: d3be 56be 452d b43e 74e2 863f a8cc 54bd
000000a0: 2b31 763e 3d04 933c 4c68 903e fb70 05bd
000000b0: 79a1 9ebe 1efb 0cbe 7d3f 1cbf 7ed8 6a3e
000000c0: ec52 e6bd 9e97 67be e95b 10bf 0fd5 30bf
000000d0: 3487 a73c 4329 19c0 b422 debf 6e1c 42be
000000e0: 99e3 903e 746c 543e 2eff e83d ddfd 51bd
000000f0: 8630 f03d 50ac 3a3e 3e3e 773e 55ed 603f
00000100: 4810 4b3e 08fe 063e 4c7e 0c3f 285d bcbd
00000110: 9ba5 d2bd 0c92 973f d562 603f cc03 06be
00000120: 8fcd 413d 1c10 903d 964a d73d 17cc d2bd
00000130: 7500 44be 9669 45be 2a21 88bf 20db 24bf
00000140: 82bb 073e 744c dc3d bc18 e2be 708c 08bf
00000150: 02eb 96bd 5ccf 29bf a2f5 c7bf f095 d33c
00000160: ea99 ae3e 00a3 3bbe 0bce 5bbe fa68 d63d
00000170: 37c3 703e e8b3 603e f041 efbe 827d 283f
00000180: 6a55 15be 12c5 1abe ae6b 443e 437c d73d
00000190: 7505 883d cc24 303f 3f3a 733f f66e 26be
000001a0: fe12 0fbd 2cc5 12bd aaa3 153e 5bb5 5ebd
000001b0: 0565 f73d b097 4abe d654 79be 933b 3ebe
000001c0: 0061 12be e53a 9dbd 6f65 563e 3105 cbbe
000001d0: 87a8 90bb b4f9 713f 7fa8 9b3c a08e f7bd
000001e0: eb93 9dbe 9ad1 363e daa1 94bc f1f2 e83d
000001f0: 260b e03e 9862 5fbd 1793 17bf c9d4 0fbf
00000200: b8e7 debd b39b 9fbe a26a 26bd a467 8dbf
00000210: dcd4 dbbc f52c b3be 9961 52bf 0098 d0bc
00000220: 3707 e13d 9b30 dc3e 8e4c 91be e7c4 27be
00000230: 6309 00bf 389a a23d 567f 60bf 4282 ee3e
00000240: d03a 8cbd 86d2 3f3e 4142 153f 0bf6 243e
00000250: b0a0 573e 3221 6c3f 5117 1c3f 80a9 3abe
00000260: 69d0 fabc 9140 c13d f74d 1c3d 40c0 3dbd
00000270: 04ea f1bd b809 2ebe 2418 86be 597e 33bf

fc_class.bias f4 [10]
-0.4646885 1.5648063 0.18388359 0.15583846 -0.4202026 0.4171471 -0.25901625 -0.18221907
-0.29503474 -0.61420417
00000000: a7eb edbe 934b c83f fb4b 3c3e 1e94 1f3e
00000010: cc24 d7be 4e94 d53e c79d 84be a397 3abe
00000020: cb0e 97be 7c3c 1dbf

decoder.0.weight f4 [16, 12]
0.0044319592 -0.49253246 0.55196726 0.14437838 -0.8081923 0.43712837 0.46765545 0.108547576
0.2532295 0.7347728 -0.15458217 0.21788742 -0.28813174 -0.2864674 0.45446333 -0.05677693
0.0038325049 0.41765976 0.768863 0.6299223 0.61595833 -0.55016726 0.42188263 0.3177848
0.3201258 0.42985198 0.3957996 0.34228075 -0.6296199 -0.24304684 0.71906865 -0.039200958
0.7893185 0.44162735 -0.017637294 0.3631762 0.07147754 -0.42379987 0.5458366 0.30792373
0.14850055 0.010278172 -0.3398633 0.48935112 1.2877753 -0.24574418 0.43528244 -0.5759421
0.38860077 -0.21779369 0.28328693 1.5137472 0.54823196 -0.43133163 0.04052231 -0.78471845
0.4892237 -0.138568 -0.112586014 -0.45082155 0.3145782 -0.16816784 0.6847869 0.20684335
0.5666796 1.0554678 -0.22703113 -0.7221474 -0.26476392 0.49883047 0.33643767 0.5012004
-0.078469485 -0.6567503 -0.23580103 0.8297294 0.52383256 -0.26332316 0.1120526 -0.050887287
0.026442468 0.45136267 -0.36741155 0.0036600472 0.2781018 0.0046640905 -0.33632955 0.2221339
-0.039710376 0.6602611 0.3948177 0.35562947 -0.3304781 0.7738657 -0.25427017 0.22055873
-0.385655 0.54966563 0.8198694 -0.43315846 0.5863749 0.14665605 -0.5169571 -0.41813806
0.64238274 -0.5345876 0.11242638 0.107632205 -0.4980259 0.28290108 1.0341632 -0.6048346
-0.25044662 0.00024697246 0.015076677 0.38779393 0.08622506 0.59685516 -0.50028735 -0.020984497
0.2621771 -0.09830707 0.10842021 0.46942213 -0.52844304 -0.35554263 -0.07222604 -0.13108362
0.5134829 -0.18263026 -0.13719746 1.1666499 0.0482697 -0.4660416 -0.8146212 0.3907294
-0.16031653 -0.04515747 0.12056724 -0.026258124 -1.0233787 0.49711025 0.92093617 0.67604136
-0.025483834 -0.22396411 0.264289 0.46812788 -0.6595203 -0.24861498 0.73337466 -0.12555994
-0.25442562 0.68634826 0.27098152 0.8827522 0.09924073 -0.026296958 0.9532962 0.5776866
-0.41125986 -0.21847059 -0.25494713 0.4478173 -0.05542965 0.41236478 0.29926568 0.080872215
0.31587946 -0.34238642 -0.7708372 1.0995584 -0.2440891 0.62409276 0.21736181 0.48671776
0.32176682 -0.72285604 -0.071024925 -0.0107298205 -0.20832399 0.32834846 -0.14192982 0.42978865
-0.58362406 0.7317853 -0.48332313 0.66193527 -0.7649669 -0.5424196 0.55070794 -0.049568042
00000000: f839 913b 372d fcbe ba4d 0d3f edd7 133e
00000010: b1e5 4ebf 4acf df3e 8970 ef3e 314e de3d
00000020: 4ca7 813e 121a 3c3f ca4a 1ebe e11d 5f3e
00000030: 0186 93be dbab 92be 6baf e83e ed8e 68bd
00000040: c32a 7b3b 80d7 d53e 35d4 443f 9642 213f
00000050: 72af 1d3f c3d7 0cbf 0001 d83e b0b4 a23e
00000060: 87e7 a33e 8f15 dc3e 3fa6 ca3e 6c3f af3e
00000070: c52e 21bf 45e1 78be e214 383f 2f91 20bd
00000080: c710 4a3f fb1c e23e 167c 90bc 3bf2 b93e
00000090: d162 923d 4cfc d8be f3bb 0b3f 2ea8 9d3e
000000a0: 8710 183e c765 283c 9002 aebe 3b8c fa3e
000000b0: d2d5 a43f 5da4 7bbe 57dd de3e f170 13bf
000000c0: aef6 c63e 4f05 5fbe fc0a 913e 78c2 c13f
000000d0: ee58 0c3f 80d7 dcbe b9fa 253d 4fe3 48bf
000000e0: 877b fa3e c5e4 0dbe 7f93 e6bd 15d2 e6be
000000f0: 6510 a13e 3134 2cbe 324e 2f3f bece 533e
00000100: ea11 113f 9219 873f d97a 68be a7de 38bf
00000110: 238f 87be b566 ff3e 8f41 ac3e ab4e 003f
00000120: 9cb4 a0bd ca20 28bf d375 71be 2569 543f
00000130: e419 063f 4bd2 86be d57b e53d 306f 50bd
00000140: e09d d83c 0219 e73e 5e1d bcbe 67dd 6f3b
00000150: 5c63 8e3e 3ad5 983b 6333 acbe 1277 633e
00000160: 59a7 22bd df06 293f 8c25 ca3e 1115 b63e
00000170: 6d34 a9be 101c 463f b32f 82be 26da 613e
00000180: 9274 c5be e3b6 0c3f f6e2 513f f2c6 ddbe
00000190: aa1c 163f 012d 163e 4d57 04bf 3116 d6be
000001a0: 3273 243f bcda 08bf cd3f e63d 466e dc3d
000001b0: 40fd febe 69d8 903e 765f 843f 71d6 1abf
000001c0: 8a3a 80be 157c 8139 2b04 773c ed8c c63e
000001d0: c496 b03d 80cb 183f d512 00bf aee7 abbc
000001e0: 143c 863e 3855 c9bd 6a0b de3d 1958 f03e
000001f0: 0b48 07bf af09 b6be 3feb 93bd c93a 06be
00000200: 9e73 033f 6d03 3bbe 7e7d 0cbe c954 953f
00000210: 73b6 453d 019d eebe 048b 50bf af0d c83e
00000220: 042a 24be 0af7 38bd f5eb f63d 471b d7bc
00000230: 13fe 82bf 3c85 fe3e 79c2 6b3f 0c11 2d3f
00000240: 79c3 d0bc d956 65be e350 873e 75ae ef3e
00000250: 53d6 28bf ed94 7ebe 71be 3b3f c992 00be
00000260: 1344 82be 85b4 2f3f 17be 8a3e 0cfc 613f
00000270: b93e cb3d b86c d7bc 380b 743f 45e3 133f
00000280: a790 d2be c1b6 5fbe 6e88 82be 4f48 e53e
00000290: 330a 63bd 7a21 d33e 5a39 993e 55a0 a53d
000002a0: f4ba a13e 464d afbe 9655 45bf 54be 8c3f
000002b0: 7ef2 79be 8bc4 1f3f 1894 5e3e 1233 f93e
000002c0: 9fbe a43e 180d 39bf 8475 91bd 21cc 2fbc
000002d0: e252 55be 4a1d a83e 0d56 11be 420d dc3e
000002e0: 6368 15bf 4856 3b3f 2176 f7be 9774 293f
000002f0: dfd4 43bf 03dc 0abf 32fb 0c3f dc07 4bbd

decoder.0.bias f4 [16]
0.3657338 0.5744225 0.6134035 0.29676092 0.4636171 0.43644348 0.19958328 0.2814749
0.095102854 0.19005598 0.20915736 0.32172757 0.36303297 0.38509837 0.25604922 0.22753572
00000000: 7641 bb3e 5a0d 133f 0308 1d3f 0cf1 973e
00000010: 385f ed3e 8575 df3e 8f5f 4c3e 7a1d 903e
00000020: 49c5 c23d 099e 423e 592d 563e 7ab9 a43e
00000030: 75df b93e 9d2b c53e e218 833e 20ff 683e

decoder.2.weight f4 [32, 16]
0.526022 -0.074673496 -0.23354444 0.30461392 0.012881412 0.3338594 0.15936248 0.18318412
0.23767947 -0.09065721 0.93922126 -0.38375986 -0.015233588 0.3239366 -0.32241347 -0.41680303
0.5761407 -0.33673936 -0.16065763 -0.4545672 0.5731047 0.6802258 -0.16201401 0.27607647
0.39460167 -0.27730295 -0.15855844 -0.05934225 0.1457379 0.044649396 0.20111854 -0.038131524
0.24549875 0.2752003 0.5518889 -0.5676835 -0.5679294 -0.22782353 0.12947501 0.59239525
-0.38473484 -0.39431208 0.43772867 0.19283295 0.8999342 -0.07682304 -0.3480343 -0.25116655
0.3015874 0.16335787 0.10631244 0.465311 -0.08759482 0.015380324 0.21224514 -0.08907201
0.21875873 -0.04803714 0.194508 -0.095682114 0.10004404 -0.057562876 -0.29947746 -0.58460635
0.43214116 0.32269517 -0.31894374 0.7390995 -0.019939484 -0.15919653 -0.08351335 -0.13089292
-0.2108476 -0.08169971 0.96584713 0.29513532 0.46240756 0.4427254 0.5118428 0.17118639
-0.46329087 0.43550572 0.18738648 0.3133542 -0.28215033 0.49892476 -0.47002545 0.2875359
-0.55984026 0.17435512 -0.2117101 0.33872062 -0.37456 0.087236606 0.3040864 0.67580307
-0.06356364 -0.38026693 -0.024382493 0.5515026 0.33636254 -0.1584687 0.49649453 0.16664048
0.12698816 -0.02886307 0.68624127 0.04307845 0.046665344 0.6657731 0.6021284 0.08810749
-0.0681884 0.06805169 0.59832865 0.26077744 0.39110437 -0.30318332 -0.5784315 0.05108593
-0.67473906 0.2839879 0.17547454 -0.124648444 0.5291666 0.43323457 0.2932657 0.29968405
0.15164757 -0.37132853 0.085375495 -0.21873192 -0.8145035 0.13665979 -0.055047926 0.5162128
0.20643094 0.6012713 -0.15365045 0.057147127 0.2935532 0.7911599 -0.14824778 0.5633436
0.44171613 0.7102645 -0.39555964 -0.012519375 -0.2920559 -0.57458013 0.9728839 0.49975848
0.12404707 0.3662186 -0.036602266 0.3277377 0.7353915 -0.03327527 0.34886983 -0.38539833
0.24197936 0.32249174 -0.41160193 -0.22101763 0.24195912 0.41113788 0.39585808 -0.18785518
-0.19946548 0.15490952 0.21963719 0.42130107 0.51371473 0.02134137 0.13105237 0.46299863
0.22333379 -0.022904297 0.13112813 -0.4830984 0.24099696 0.24200574 -0.42394128 0.05121243
-0.07445064 -0.21743913 0.7030506 -0.009079206 0.50192684 0.4086736 0.3997451 -0.045324318
0.28101325 0.32321447 -0.37155268 0.06057006 0.46268585 0.3163758 0.31134555 -0.2483566
-0.034082394 0.19675241 0.02359234 0.3453211 -0.05538265 0.075415365 -0.07126897 0.32595378
0.20326607 0.67743176 -0.17632285 -0.13730516 -0.09689384 -0.051669683 -0.062313538 -0.060410187
-0.12055343 0.19177407 0.13558173 0.09481066 0.22126561 -0.16589898 -0.031227473 -0.3558021
0.18702883 0.107658714 0.23082322 0.16398805 0.16833322 -0.35291037 0.40923253 0.32201833
0.2132809 0.15791513 0.059086215 -0.08234342 -0.5323875 -0.22334903 0.40660897 0.33838162
0.13548806 -0.10165304 -0.17590116 -0.34654847 0.24200104 0.077766955 0.46030912 0.33833718
0.11704859 0.087135755 -0.4723428 0.2994881 0.27826765 0.20496768 0.27056462 -0.5088834
00000000: 61a9 063f 6bee 98bd 4626 6fbe 5bf6 9b3e
00000010: 8f0c 533c 9fef aa3e eb2f 233e 9e94 3b3e
00000020: 3f62 733e 7daa b9bd ce70 703f 2c7c c4be
00000030: 4d96 79bc 05db a53e 6113 a5be 3567 d5be
00000040: f57d 133f 1a69 acbe 6f83 24be 08bd e8be
00000050: fdb6 123f 4723 2e3f 00e7 25be e559 8d3e
00000060: 3b09 ca3e a7fa 8dbe 255d 22be dc10 73bd
00000070: 513c 153e 49e2 363d 05f2 4d3e cd2f 1cbd
00000080: 0664 7b3e 0ee7 8c3e 9748 0d3f b553 11bf
00000090: d263 11bf 924a 69be 1995 043e 37a7 173f
000000a0: f7fb c4be 46e3 c9be f91d e03e 0076 453e
000000b0: 1662 663f 6655 9dbd 8d31 b2be e798 80be
000000c0: aa69 9a3e 4947 273e 56ba d93d 3e3d ee3e
000000d0: ea64 b3bd c1fd 7b3c ca56 593e 636b b6bd
000000e0: 4a02 603e 98c2 44bd 1b2d 473e fcf4 c3bd
000000f0: e4e3 cc3d 0dc7 6bbd 1c55 99be c3a8 15bf
00000100: 9b41 dd3e 4d38 a53e 984c a3be a035 3d3f
00000110: 2158 a3bc 6a04 23be 0c09 abbd cb08 06be
00000120: 6fe8 57be 2d52 a7bd c241 773f fa1b 973e
00000130: afc0 ec3e e7ac e23e 2108 033f 7c4b 2f3e
00000140: 7634 edbe 9bfa de3e 3ee2 3f3e f66f a03e
00000150: 0276 90be 1173 ff3e 2da7 f0be e837 933e
00000160: b151 0fbf 268a 323e 88ca 58be ca6c ad3e
00000170: 54c6 bfbe 1ba9 b23d 36b1 9b3e 6e01 2d3f
00000180: a72d 82bd 59b2 c2be cbbd c7bc 462f 0d3f
00000190: b637 ac3e 9e45 22be 8834 fe3e cda3 2a3e
000001a0: 2f09 023e 3f72 ecbc 82ad 2f3f 0773 303d
000001b0: 2924 3f3d 1b70 2a3f 1625 1a3f b371 b43d
000001c0: 5ca6 8bbd af5e 8b3d 112c 193f 9f84 853e
000001d0: d53e c83e d83a 9bbe 1614 14bf 7b3f 513d
000001e0: b3bb 2cbf dd66 913e 99af 333e af47 ffbd
000001f0: 7677 073f ecd0 dd3e ec26 963e 3070 993e
00000200: 8049 1b3e c61e bebe 59d9 ae3d 43fb 5fbe
00000210: 4d83 50bf 8bf0 0b3e ef79 61bd 8626 043f
00000220: a262 533e eaec 193f 8b56 1dbe 1b13 6a3d
00000230: 9b4c 963e 7589 4a3f 44ce 17be 4937 103f
00000240: 9e28 e23e e5d3 353f cb86 cabe 111e 4dbc
00000250: 5a88 95be af17 13bf eb0e 793f 58e0 ff3e
00000260: 640c fe3d 0181 bb3e 42ec 15bd 3ccd a73e
00000270: 9e42 3c3f a64b 08bd 119f b23e ee52 c5be
00000280: 70c9 773e a31d a53e 7dbd d2be 7252 62be
00000290: 22c4 773e aa80 d23e e9ad ca3e 1c5d 40be
000002a0: ae40 4cbe 9aa0 1e3e 92e8 603e c6b4 d73e
000002b0: cf82 033f 19d4 ae3c 9832 063e 280e ed3e
000002c0: 9db1 643e cba1 bbbc 7446 063e ac58 f7be
000002d0: e8c7 763e 5ad0 773e d50e d9be 20c4 513d
000002e0: 9479 98bd 5da8 5ebe 20fb 333f f3c0 14bc
000002f0: 477e 003f ab3d d13e 64ab cc3e fea5 39bd
00000300: f8e0 8f3e 5e7c a53e 273c bebe 5018 783d
00000310: 29e5 ec3e 02fc a13e af68 9f3e 3151 7ebe
00000320: fb99 0bbd 7779 493e b944 c13c edcd b03e
00000330: ebd8 62bd 5f73 9a3d 77f5 91bd 6ae3 a63e
00000340: fb24 503e 2b6c 2d3f fa8d 34be b999 0cbe
00000350: 4770 c6bd 97a3 53bd 7b3c 7fbd ac70 77bd
00000360: b7e4 f6bd 6c60 443e f0d5 0a3e 172c c23d
00000370: 7493 623e 6ce1 29be c2d0 ffbc b12b b6be
00000380: 7c84 3f3e 2c7c dc3d ec5c 6c3e 7cec 273e
00000390: 8b5f 2c3e abb0 b4be ed86 d13e 96df a43e
000003a0: 4f66 5a3e 81b4 213e 6304 723d aba3 a8bd
000003b0: 8c4a 08bf 9cb5 64be 0d2f d03e 5b40 ad3e
000003c0: 62bd 0a3e 782f d0bd 6f1f 34be cd6e b1be
000003d0: 1fcf 773e 4844 9f3d a3ad eb3e 883a ad3e
000003e0: 2cb7 ef3d 3b74 b23d ead6 f1be 8156 993e
000003f0: 1979 8e3e 0ce3 513e 7287 8a3e 2f46 02bf

decoder.2.bias f4 [32]
0.09854407 0.26292366 0.5147522 0.30475897 -0.33641183 0.19494006 -0.3464987 0.00089978095
-0.021844756 -0.3636668 0.15723738 0.29478636 0.0051768906 0.41297573 0.017855827 0.22374904
0.18569033 0.27344084 0.13518122 0.339077 -0.1494028 -0.2842384 -0.19132146 0.3585472
0.112560935 0.15894035 0.07082269 0.10722635 0.3349415 -0.10869094 0.08357829 -0.12605157
00000000: 79d1 c93d ee9d 863e cdc6 033f 5e09 9c3e
00000010: 2c3e acbe 5e9e 473e 4768 b1be 47df 6b3a
00000020: c6f3 b2bc 8932 babe d602 213e 3dee 963e
00000030: e8a2 a93b 8e71 d33e 6246 923c 781e 653e
00000040: 9b25 3e3e 7000 8c3e f26c 0a3e 809b ad3e
00000050: 0cfd 18be b287 91be c6e9 43be 8093 b73e
00000060: 5986 e63d 42c1 223e 7d0b 913d 7d99 db3d
00000070: 747d ab3e 5b99 debd 182b ab3d aa13 01be

decoder.4.weight f4 [128, 32]
0.121098585 -0.3848277 -0.27480435 0.029073587 0.666524 -0.074485704 0.5547619 0.37221286
-0.30582136 -0.6735333 0.032824285 0.12513508 0.35060287 0.15066929 -0.24266885 -0.25840694
0.07382536 0.2278803 -0.0732451 0.09989236 -0.27721727 0.04209408 0.05077803 -0.21424289
-0.16426028 0.10161139 0.030631587 -0.6785815 0.42249256 0.06080054 0.37956506 0.11384424
-0.18200138 -0.06266888 -0.026256356 -0.11076113 -0.21386497 0.28772432 -0.050422147 -0.052924637
-0.16806793 -0.24194886 0.4001951 0.16274217 0.18269643 0.2553714 -0.018447341 0.10117685
0.13706276 -0.01472593 0.04033729 -0.086276434 -0.064824134 -0.041746862 0.029915594 0.082934484
0.25756913 -0.07830694 0.061983906 0.21699731 -0.027571801 0.044628847 -0.40003505 -0.27961072
-0.18200813 -0.23083133 -0.04357315 -0.18279974 0.05509822 0.22362831 0.45722562 0.26281452
-0.28764543 0.17293355 -0.027585598 0.07799949 -0.00845281 -0.10458408 0.09618274 -0.20288183
0.110667326 0.37004173 0.21726121 -0.037524384 0.06404261 0.06122946 0.18791842 -0.28748026
-0.07584438 0.19235267 -0.018159917 -0.025851622 -0.006329829 -0.0011107473 -0.14551342 -0.05781377
-0.09330426 0.03955743 -0.46185923 -0.06720234 -0.35952625 0.0752675 -0.12860976 -0.23162353
0.17670976 -0.2584567 0.033774383 0.020879067 0.33197728 -0.18426166 -0.033762373 0.17737386
0.17351316 0.22597645 -0.18195653 0.026073668 -0.11812659 0.1360414 -0.14187779 0.08244827
-0.05355339 0.31563637 0.359231 0.09974071 -0.07365396 0.12789126 0.10235387 0.30338708
0.15744087 0.26608643 -0.5948247 0.18445766 0.21862979 0.28671554 -0.118832074 0.34869432
-0.68622 -1.1055608 -0.15532912 0.2345802 -0.01782037 0.3362074 -0.08530607 -0.051372446
0.27247286 0.27340934 0.3017694 -0.09659798 -0.56951463 -0.31666493 -0.058363937 0.20325358
0.10958667 0.2873819 -0.1792654 -0.5131682 0.5148454 -0.13249141 -0.021099767 -0.055905286
0.37002218 0.29898646 0.36168227 -0.051447265 0.033758868 -0.25708696 -0.084709406 0.0767187
-0.4739473 -0.71468246 0.09415655 0.7301327 0.09449879 -0.019467354 -0.013893898 0.10920065
0.10303572 -0.14755939 -0.17960934 0.0027695084 -0.34061885 0.3031811 0.14199117 0.26023683
0.18581223 0.17314205 -0.09588949 -0.18822628 -0.13033457 0.1575926 -0.08563883 0.4232288
0.0023173736 0.1233114 0.49462146 0.13510603 -0.36196095 -0.29285488 0.060264867 0.26289445
-0.19897687 -0.27361453 0.09577863 0.23109402 -0.25504127 -0.23744316 0.006525857 0.21742235
-0.022166913 -0.12602043 -0.15509339 0.13118894 -0.23364066 -0.086975046 -0.026760213 -0.24071537
-0.09911034 0.041461423 0.4921301 0.60371953 -0.038662735 -0.18682419 0.08138608 0.3933035
0.12279606 -0.142079 0.09961975 0.06975952 -0.18593793 0.05986752 0.06089093 0.10738988
0.15524372 0.07247161 -0.056345362 -0.14077422 0.12914215 -0.10703975 -0.09049626 0.031258184
-0.014773427 0.015428057 0.123716235 -0.12162364 -0.086871274 0.06766839 0.012431445 -0.13866833
-0.08975539 -0.0887376 0.006886289 -0.0073310304 -0.088982806 0.06872098 0.011687259 -0.1608796
00000000: 8902 f83d 2308 c5be 28b3 8cbe bb2b ee3c
00000010: 51a1 2a3f f68b 98bd e004 0e3f af92 be3e
00000020: 9e94 9cbe ae6c 2cbf c272 063d 6923 003e
00000030: 3882 b33e 0d49 1a3e 2f7e 78be ea4d 84be
00000040: c031 973d 7459 693e 8701 96bd 5e94 cc3d
00000050: 6cef 8dbe d86a 2c3d a0fc 4f3d 7d62 5bbe
00000060: d933 28be a219 d03d 18ef fa3c 84b7 2dbf
00000070: f250 d83e fd09 793d 5a56 c23e 2b27 e93d
00000080: 925e 3abe 8b58 80bd 9217 d7bc bbd6 e2bd
00000090: 6bff 5abe 9a50 933e 7487 4ebd 81c7 58bd
000000a0: 001a 2cbe 71c1 77be 5fe6 cc3e e2a5 263e
000000b0: c614 3b3e 0ac0 823e e11e 97bc cf35 cf3d
000000c0: 2e5a 0c3e 0745 71bc b738 253d b3b1 b0bd
000000d0: 84c2 84bd c2fe 2abd 8c11 f53c 8ed9 a93d
000000e0: 1ae0 833e 645f a0bd d6e2 7d3d 8b34 5e3e
000000f0: 42de e1bc bdcc 363d 65d1 ccbe 2329 8fbe
00000100: 5760 3abe 0c5f 6cbe c279 32bd db2f 3bbe
00000110: acae 613d d2fe 643e 7a19 ea3e a08f 863e
00000120: 4346 93be 7e15 313e 31fb e1bc 32be 9f3d
00000130: a87d 0abc 2e30 d6bd 75fb c43d 41c0 4fbe
00000140: 8da5 e23d 1c76 bd3e b979 5e3e 2bb3 19bd
00000150: c628 833d becb 7a3d b06d 403e 9d30 93be
00000160: 4c54 9bbd 19f8 443e 1bc4 94bc c8c6 d3bc
00000170: 746a cfbb 7f96 91ba 7801 15be 22ce 6cbd
00000180: 4e16 bfbd f906 223d d078 ecbe 61a1 89bd
00000190: d313 b8be d925 9a3d 47b2 03be b82e 6dbe
000001a0: 67f3 343e 7054 84be 0257 0a3d 940a ab3c
000001b0: edf8 a93e 17af 3cbe 6a4a 0abd 7ea1 353e
000001c0: 6fad 313e 5f66 673e d052 3abe 7298 d53c
000001d0: 5bec f1bd 704e 0b3e 6948 11be a3da a83d
000001e0: cd5a 5bbd 179b a13e 20ed b73e db44 cc3d
000001f0: e3d7 96bd edf5 023e e89e d13d 8d55 9b3e
00000200: 2e38 213e 7b3c 883e 6e46 18bf 78e2 3c3e
00000210: 7de0 5f3e 61cc 923e 3b5e f3bd 1088 b23e
00000220: 1dac 2fbf 0483 8dbf 990e 1fbe cb35 703e
00000230: 06fc 91bc 6023 ac3e f3b4 aebd ea6b 52bd
00000240: 9081 8b3e 4ffc 8b3e 8581 9a3e 29d5 c5bd
00000250: b6cb 11bf e821 a2be 060f 6fbd b521 503e
00000260: fa6e e03d b823 933e 5991 37be fe5e 03bf
00000270: e8cc 033f d4ab 07be 6bd9 acbc f1fc 64bd
00000280: 8c73 bd3e c114 993e 6b2e b93e 5eba 52bd
00000290: bd46 0a3d e7a0 83be 207c adbd b21e 9d3d
000002a0: 38a9 f2be 6ef5 36bf 26d5 c03d fae9 3a3f
000002b0: 9588 c13d 007a 9fbc 3ba3 63bc 97a4 df3d
000002c0: 6404 d33d cf19 17be 83eb 37be a480 353b
000002d0: 9865 aebe 8e3a 9b3e 2266 113e c33d 853e
000002e0: 9045 3e3e 264c 313e b561 c4bd 64be 40be
000002f0: 6d76 05be f45f 213e 6963 afbd 72b1 d83e
00000300: 14df 173b b08a fc3d 063f fd3e 3c59 0a3e
00000310: f252 b9be 13f1 95be 4bd8 763d 1a9a 863e
00000320: 98c0 4bbe 3417 8cbe 9627 c43d e9a3 6c3e
00000330: c594 82be 4d24 73be dbd6 d53b f7a3 5e3e
00000340: 6397 b5bc 800b 01be cdd0 1ebe 6556 063e
00000350: 7f3f 6fbe f91f b2bd 3c38 dbbc 177e 76be
00000360: 5dfa cabd 74d3 293d 7af8 fb3e 5d8d 1a3f
00000370: d15c 1ebd d74e 3fbe bfad a63d 145f c93e
00000380: 807c fb3d 287d 11be 7105 cc3d 14de 8e3d
00000390: 8366 3ebe a537 753d c568 793d 3aef db3d
000003a0: 36f8 1e3e ff6b 943d 65ca 66bd 1e27 10be
000003b0: d73d 043e a837 dbbd 1a56 b9bd 9508 003d
000003c0: 3e0c 72bc f6c5 7c3c f05e fd3d d115 f9bd
000003d0: 91e9 b1bd ba95 8a3d 42ad 4b3c 12ff 0dbe
000003e0: add1 b7bd 0fbc b5bd 61a6 e13b 2439 f0bb
000003f0: 9e3c b6bd 96bd 8c3d eb7b 3f3c 9fbd 24be

decoder.4.bias f4 [128]
0.1677485 0.20665081 0.069912955 0.021724945 0.28760117 0.1672182 0.1767633 -0.12183326
0.13722026 0.22786137 0.05363806 0.07412535 -0.03170935 0.11342351 0.05527784 -0.25526586
0.18258144 0.07478261 -0.23650712 0.09402802 -0.1560021 -0.004659355 -0.11528792 0.0647354
0.0849628 0.22961184 0.012582192 -0.012969801 -0.09600242 0.009913259 -0.23551673 0.20511307
0.2415644 0.082930304 -0.10259329 -0.1102426 0.03907787 0.23476622 0.26664236 0.007933438
-0.03950088 0.10548008 0.07244131 0.25259063 -0.014529884 0.09135697 0.31058747 -0.047424722
-0.04460762 0.03546487 -0.34751037 0.017347146 0.19235753 0.13423042 -0.04975287 -0.12861887
-0.14333755 0.029102037 -0.063057266 0.22768523 -0.13987102 0.072064295 -0.037428655 -0.30288112
0.062242813 0.02796747 -0.075973585 0.09985431 -0.16416547 0.1689015 0.023843776 0.00082966004
-0.090099454 -0.18597981 0.13505617 0.26452827 0.21340477 0.0040194937 -0.17358951 0.26178807
0.46168336 -0.14318183 -0.1276956 0.06973936 0.11613444 0.2521116 0.31233668 0.26431844
0.17022501 -0.15291825 0.15285902 0.23283845 -0.200074 0.39056978 0.033211764 -0.16926442
-0.46699482 -0.2402609 -0.018495163 0.349805 -0.10590959 0.32494935 -0.52402204 0.11481793
-0.45947948 0.3264873 0.14187387 -0.13972725 0.10439467 0.13662133 -0.049210377 -0.014878607
0.3430217 0.08486851 -0.050323352 0.43254337 0.08587461 -0.09456415 0.045267094 -0.61688733
0.13014469 0.12709618 -0.051148787 0.3339236 0.19563994 -0.05580511 -0.4230923 -0.114143685
00000000: 43c6 2b3e 459c 533e 862e 8f3d 83f8 b13c
00000010: 7640 933e 3f3b 2b3e 7001 353e b783 f9bd
00000020: 7883 0c3e 7e54 693e 95b3 5b3d 08cf 973d
00000030: aae1 01bd 964a e83d 046b 623d 35b2 82be
00000040: a1f6 3a3e a027 993d ec2e 72be c391 c03d
00000050: 04bf 1fbe 81ad 98bb 131c ecbd fe93 843d
00000060: fa00 ae3d 5e1f 6b3e 8a25 4e3c 4a7f 54bc
00000070: eb9c c4bd 396b 223c 4c2b 71be 2909 523e
00000080: a85c 773e 5dd7 a93d 6e1c d2bd dfc6 e1bd
00000090: 1e10 203d 8e66 703e 5985 883e 40fb 013c
000000a0: adcb 21bd f105 d83d 1c5c 943d 8f53 813e
000000b0: c00e 6ebc 5d19 bb3d 5205 9f3e 6d40 42bd
000000c0: 7bb6 36bd 9d43 113d e1ec b1be 9a1b 8e3c
000000d0: 5ff9 443e b373 093e aac9 4bbd aab4 03be
000000e0: 14c7 12be 6567 ee3c 2b24 81bd 5126 693e
000000f0: 593a 0fbe 7296 933d ca4e 19bd 3c13 9bbe
00000100: 52f2 7e3d 091c e53c 0a98 9bbd 6b80 cc3d
00000110: fe1a 28be 84f4 2c3e 0654 c33c 8b7d 593a
00000120: 1086 b8bd 7e71 3ebe 2a4c 0a3e 4070 873e
00000130: c886 5a3e f5b5 833b 73c1 31be 1609 863e
00000140: c361 ec3e 429e 12be a3c2 02be 82d3 8e3d
00000150: e5d7 ed3d c614 813e 98ea 9f3e bf54 873e
00000160: 774f 2e3e 9a96 1cbe 1387 1c3e 346d 6e3e
00000170: 33e0 4cbe c3f8 c73e 0f09 083d a753 2dbe
00000180: f219 efbe f406 76be 2b83 97bc a419 b33e
00000190: 21e7 d8bd c35f a63e 4f26 06bf aa25 eb3d
000001a0: e540 ebbe 5829 a73e 6247 113e a914 0fbe
000001b0: dfcc d53d 76e6 0b3e d290 49bd 67c5 73bc
000001c0: 8aa0 af3e 8bcf ad3d dc1f 4ebd 5376 dd3e
000001d0: 07df af3d d9aa c1bd fd69 393d 54ec 1dbf
000001e0: a644 053e 8025 023e 6481 51bd 09f8 aa3e
000001f0: d655 483e e693 64bd 8e9f d8be 2ac4 e9bd
