best_vae_mlp_model.pth (torch, 848850 bytes, 18 tensors)

encoder.0.weight f4 [128, 784]
000000 6e 0b ae 3c 91 6a fd bc 78 aa 0f 3d 76 29 07 bd
       0.021245684 -0.030934604 0.03507468 -0.032998525
000010 e3 d7 f2 3c bc f3 00 3c 33 fb a3 3c 6c 67 cb bc
       0.029643958 0.007870611 0.020017242 -0.024829589
000020 53 60 e1 bb 48 ab 0c 3d b3 11 91 bc 9e c7 c1 bc
       -0.006877938 0.034343034 -0.017708635 -0.023654755
000030 ca fd 62 bc ca 5b ce 3c 33 c3 09 bd 41 ea 52 bc
       -0.013854453 0.025190253 -0.033633422 -0.012873233
000040 55 7d bd bc 1e 4c 84 3c 25 1d 40 ba e1 32 ac 3c
       -0.023131052 0.016149577 -0.00073285616 0.021020355
000050 75 1d ab bc 4a b7 f3 3b 5a cc 0f bd d5 33 bc 3c
       -0.02088807 0.0074376212 -0.035106994 0.022973934
000060 93 b6 7f ba 83 ef c0 bc c0 19 02 bc 47 d8 8f bc
       -0.00097546837 -0.023551708 -0.00794071 -0.017559184
000070 4e 88 84 bc 17 82 ca 3c dc 01 e3 3c dc 0f 04 3d
       -0.016178276 0.024720235 0.027710848 0.032241687
000080 2c 46 ea 3c e5 27 33 bc dc 77 fe 3a 6e e5 6a ba
       0.028597914 -0.010934805 0.0019414383 -0.0008960579
000090 0a 08 fa 3b 8f 85 c8 3c 27 b8 1b 3d 68 ba 96 3c
       0.007630353 0.024477748 0.03801742 0.018399432
0000a0 84 8d 35 bc 25 07 08 3c 1c 5e fb 3b b3 98 4b 3c
       -0.011081103 0.008302485 0.007671131 0.012426543
0000b0 4a d1 1a 3b 55 74 d5 3c 0c 50 b8 3c f7 c3 c8 bb
       0.002362328 0.026056448 0.022499107 -0.0061268765
0000c0 2e 6a 91 bc 12 30 08 bd 45 2c 90 3c d8 eb 09 3d
       -0.017750826 -0.03324897 0.017599234 0.033672184
0000d0 73 b2 94 bc e1 d6 d9 bc c0 da 99 bb cb 87 10 3d
       -0.018151497 -0.02659172 -0.0046952665 0.035285752
0000e0 0c 10 e6 bc 17 ef c9 3c e7 c0 bf bc 01 6c 33 bc
       -0.028083824 0.02465014 -0.023407413 -0.010951043
0000f0 35 d6 de 3c 0e 74 dd bc f7 ef ab bc dc b0 0d 3b
       0.027201751 -0.027032878 -0.020988448 0.002162031
000100 dc b5 de 3b 74 90 7d bc ed 82 f0 bc 80 70 64 3c
       0.0067965817 -0.015476335 -0.029359305 0.013942838
000110 39 84 0a 3c e7 10 03 3d 8a f9 a6 bb 4a 22 74 3b
       0.008454376 0.03199854 -0.0050956653 0.0037251883
000120 8a 3e 8d 3c 81 94 f7 3b 78 96 fc 3b 47 81 47 3c
       0.017241735 0.007555545 0.007708367 0.012176818
000130 a9 35 24 bd 2d 40 9c 3c 65 51 61 bc 8a 98 85 3c
       -0.040090237 0.01907357 -0.013752316 0.016308088
000140 65 df d9 3b 55 48 8d 3c 0a b3 b8 bc c7 50 11 3d
       0.006648945 0.017246405 -0.02254631 0.035477426
000150 fa 71 a7 3c 66 a0 03 bd f0 be 0b bd 0a 8e 30 3c
       0.02044009 -0.03213539 -0.03411764 0.010776052
000160 2a 8e e7 3c 25 21 5c 3b b8 9e db ba 38 27 79 3b
       0.028266031 0.0033589092 -0.0016755676 0.003801776
000170 38 78 01 bd 3a d8 69 3c eb 37 ff 3c 6d c7 1e 3d
       -0.03160879 0.014272744 0.031154593 0.038764406
000180 92 10 d7 bc 65 20 8a bc 97 14 a0 bb 68 e0 5b 3c
       -0.026253019 -0.01686115 -0.004885267 0.013420202
000190 f4 b0 92 bc bf 2f e4 bc 35 de 3f 3b 26 a7 73 bc
       -0.017906643 -0.027854798 0.0029276733 -0.014871394
0001a0 2a 36 6c bb 25 e3 9e ba ee 1f c3 3b ae 41 f4 bb
       -0.0036043026 -0.0012122138 0.005954734 -0.0074541187
0001b0 ee 13 8c bc 65 ff df 3c c5 b3 1a bc dc f0 36 bb
       -0.017099347 0.027343461 -0.009442274 -0.002791456
0001c0 93 d9 3c bc 9e 3a fd 3c 15 bb 08 3d cc e4 c6 bc
       -0.011526483 0.03091174 0.03338154 -0.02427902
0001d0 ec b2 cb 3c 75 b2 aa 3c 1c ba 87 bc 93 ad 7e bc
       0.02486559 0.020837048 -0.016568236 -0.015544313
0001e0 47 5d ce bc 57 a3 9d 3b f2 b7 92 bc fb 71 b4 3c
       -0.025190962 0.0048107314 -0.017909978 0.022027006
0001f0 d2 41 be 3c 94 6b f4 bb 12 f1 73 3c 21 fc 1b bb
       0.023224745 -0.0074591134 0.014889019 -0.0023801404
000200 c1 d5 be bc b1 c1 9a 39 83 f2 bb bb e9 39 8c bc
       -0.023295285 0.0002951748 -0.0057356968 -0.017117457
000210 c0 80 2d 3c bf dd 48 3c c0 99 85 3c 5a c2 e5 bc
       0.010589778 0.0122599 0.016308665 -0.028046776
000220 94 d5 05 bd ee 92 8a bc 7c 0a 9f 3c ea e3 79 3c
       -0.032674387 -0.016915765 0.019414179 0.015252093
000230 c0 4f 00 bd 5e 19 b9 3c 13 15 14 bc ae 00 8f bc
       -0.031326056 0.022595104 -0.009038228 -0.017456379
000240 b5 d9 a1 bc 45 6c 13 bc 0c ab b8 bc 73 78 b8 3c
       -0.019757131 -0.008997981 -0.022542499 0.022518372
000250 c2 3b 6a bc f0 ec f3 bc 98 59 0e bd 49 49 8f bc
       -0.014296474 -0.029776067 -0.034753412 -0.017491
000260 fe 13 54 bc 4f 0d 10 bd 70 48 39 bd 09 9b 67 3c
       -0.01294422 -0.035168942 -0.045235097 0.014136084
000270 3f 54 dc bc ac f2 eb 3c 09 eb 70 bc b4 f7 96 bc
       -0.02689564 0.028802238 -0.014704474 -0.01842866
000280 1b 06 bf bb e1 54 0c bd e9 7c 20 bd 9c 8f e3 3c
       -0.0058295853 -0.034260634 -0.039181624 0.02777844
000290 aa ab 01 bd 1a f4 8e bc 9c 54 ee bc 5a 6c 8c 3c
       -0.031657852 -0.017450381 -0.02909308 0.01714151
0002a0 be 8b bb bc cc 1e 9a bc 2a ff b6 bc 4a 78 44 bb
       -0.022893783 -0.018813513 -0.022338469 -0.0029978924
0002b0 6c d9 fd 3c f3 25 86 3c 65 d6 d9 3b a1 0e 77 3c
       0.030987464 0.016375517 0.0066478723 0.015079171
0002c0 95 cf 20 bd 3e 76 72 3c 55 7e fe bc 1d c6 02 bc
       -0.039260466 0.014798699 -0.0310661 -0.007981804
0002d0 fc c3 1f bc 4f 90 17 bd 86 be f4 bc 76 18 20 3c
       -0.009751316 -0.037002858 -0.029876005 0.009771457
0002e0 05 8b 98 bc f7 4d 04 bc e5 60 e2 3c 9f 01 1b bd
       -0.018620977 -0.008075229 0.027634094 -0.037843343
0002f0 44 5f e8 3c 80 f4 01 bd 9a a3 95 bc 47 25 2d bd
       0.028365739 -0.031727314 -0.018266488 -0.04227188
000300 29 b9 94 3c 8f fc ef bb c7 75 90 3c 4a 3a 3b 3b
       0.018154697 -0.0073238085 0.017634286 0.0028568679
000310 4a 8d 3f bc ce ab c5 3c 5c fe 05 bb 0e b8 2e bc
       -0.011691401 0.024129774 -0.00204458 -0.010663999
000320 ef 94 70 3b d9 a6 56 3c b9 7b fa bb 92 18 90 bb
       0.0036709865 0.013101303 -0.0076441434 -0.0043974603
000330 55 fb f2 bb 3e 1b 38 bd 02 45 bb bc ce e8 3b bc
       -0.007415215 -0.044947855 -0.022860054 -0.011469079
000340 0e bf 27 bd 0b e8 d0 3c 14 0d be bc 9d 83 0f bd
       -0.04095369 0.025501272 -0.023199596 -0.035037626
000350 da 07 35 bd 15 1f 0a bd 18 fe 1b bd e7 99 4a 3c
       -0.04419694 -0.03372105 -0.03808412 0.012365795
000360 75 aa 8c bb df 8b 3e bc 0e db d3 bb 4d 27 ba 3c
       -0.004292781 -0.011630028 -0.0064653223 0.022723818
000370 bf d5 c0 3c 01 88 e3 3c 95 02 ce 3c 6e 43 f5 3a
       0.023539422 0.027774813 0.025147716 0.0018712112
000380 00 f0 03 bd 5c 80 4e 3b b8 6d e4 b9 c2 73 13 bb
       -0.032211304 0.0031509614 -0.00043569296 -0.0022499417
000390 0d bd e1 bc 53 8d be 3c 63 e4 2e bd d4 75 24 bd
       -0.027555967 0.023260748 -0.042698275 -0.040151432
0003a0 ef 95 a2 bc c3 d0 fa bc 3f 93 1c bd 5c eb f5 bc
       -0.019846885 -0.030617123 -0.038226362 -0.030019455
0003b0 66 f0 63 3c 45 03 8c bc b6 ae 97 3c 09 cc b8 bc
       0.013912296 -0.017091403 0.018515926 -0.022558229
0003c0 a4 88 01 bd ff 57 a3 bb b0 10 bd bc b8 5e fe bc
       -0.03162445 -0.004984855 -0.023079246 -0.031051025
0003d0 1a a6 ef 3b 01 f5 43 3c f1 ad 14 3c 23 d6 db bc
       0.007313502 0.011960269 0.009074674 -0.026835507
0003e0 b7 a0 0e bd 0e 03 db bc 81 d2 d9 bc 5c a8 83 3b
       -0.03482124 -0.026734855 -0.026589634 0.0040178727
0003f0 c5 7f af 3c 9c b5 98 bc 10 fc 8c bc 7a c7 b7 3c
       0.02142323 -0.018641286 -0.017210037 0.022433985

encoder.0.bias f4 [128]
000000 61 2a 8f bc 09 ce 38 3e d8 07 a0 3e 49 e5 40 3c
       -0.017476263 0.18047346 0.31255984 0.011773416
000010 f8 4a fe 3b 71 f4 1f be cc 12 88 3c 82 d7 02 3f
       0.007760402 -0.15620591 0.016610526 0.5111009
000020 c4 7f 45 3d b6 d6 24 3f cf d5 c7 3c 78 e4 fc 3e
       0.04821755 0.6439012 0.024393944 0.49393058
000030 d6 3f 10 bd bc 03 b6 3c b1 de 08 3f 8a 92 54 3f
       -0.03521713 0.022218578 0.534648 0.830361
000040 ac 5d 26 3f 47 6e 21 bd 72 c6 a0 3b 8c 80 e0 3e
       0.6498668 -0.03941181 0.004906469 0.43848073
000050 ca dc 86 bc 90 a3 b6 bb b8 86 07 3f 90 71 29 3c
       -0.016462702 -0.0055736974 0.5293994 0.010342017
000060 9b 1d c5 3e 9a ff b6 3c f9 3a d2 3e 16 97 13 bc
       0.3849915 0.022338677 0.41060618 -0.00900819
000070 4d 81 e1 bc 6a 49 de 3a 8a a2 17 bd 9f 50 29 bd
       -0.027527476 0.0016959135 -0.037020244 -0.041336652
000080 0e 8d c5 3e 87 bc 83 3e fd 5e 6b 3e 14 1b 13 bd
       0.3858418 0.25729772 0.22985454 -0.035914496
000090 d0 72 fb bc 40 be 21 3c 8d e4 0d 3c 68 e2 1b bd
       -0.030694395 0.009872019 0.008660448 -0.038057715
0000a0 b5 e0 2b 3f 38 e6 5c 3f 3c 84 06 3c 89 5f 46 3e
       0.6713975 0.86288786 0.008210238 0.19372381
0000b0 03 07 52 bc d0 8d 53 3f 86 24 30 3e 78 3c 9b 3e
       -0.012819055 0.82638264 0.17201433 0.30319571
0000c0 fe 2f 3f bd 95 5e 13 bd 05 94 d0 bc 58 cb ea bc
       -0.04667663 -0.035978872 -0.025461206 -0.028661415
0000d0 7a 3b 59 3f 68 d0 72 3e 0f a4 3d be 57 c0 28 bd
       0.8485638 0.23712313 -0.18519615 -0.041199055
0000e0 8a ac fe 3e 39 67 b1 3e b6 31 ec 3e 3d 53 02 bd
       0.49741012 0.34649065 0.46131676 -0.031817663
0000f0 32 4a c3 3e d6 07 03 3f bf 03 84 be f8 6b 0f be
       0.38142544 0.5118383 -0.25784108 -0.1400603
000100 c4 0a 54 bd 87 72 0c 3f ed 20 05 3f 5f 7c 04 3f
       -0.05176808 0.54862255 0.52003366 0.51752275
000110 58 8b fb 3e 00 ca 31 3f 58 e4 c9 bc b1 5c 58 bc
       0.49129748 0.6944885 -0.024645016 -0.013205693
000120 76 39 38 bd b3 b2 a5 3e 0a de ef b9 4f 7f fe bb
       -0.044976674 0.323629 -0.00045751064 -0.007766641
000130 df 2d 46 3b 70 82 64 3f ae 72 c4 bc 0d ad 53 bc
       0.0030239744 0.8926153 -0.023980465 -0.0129196765
000140 76 a6 dd ba af f6 76 3f b0 4c 11 3c d5 04 25 3c
       -0.0016910571 0.9647016 0.008868381 0.010071953
000150 10 c5 ea 3e 16 76 89 3c 36 c9 77 3e 1e 08 04 3f
       0.45853472 0.01677994 0.2419785 0.51574886
000160 2c 75 d1 bc a9 1b 44 3c 01 b6 3e 3f 4a 94 36 3f
       -0.025568567 0.011969485 0.74496466 0.7132002
000170 54 00 e3 3e b0 0d e4 3e e8 8e 93 3f e5 7a f5 3c
       0.44336188 0.44541693 1.1527987 0.029965827
000180 0a 72 e2 3e e1 f4 6b bc 5a 14 45 3f 96 14 d0 3e
       0.4422763 -0.014401645 0.7698418 0.40640706
000190 c0 7b 2f bc 2c da 95 3c 39 02 51 bc f5 19 e4 3e
       -0.010710657 0.018292509 -0.012756878 0.44551054
0001a0 07 1c 03 3e ee 34 8b 3f 47 b7 ce 3e 79 48 10 3f
       0.1280366 1.0875528 0.40374205 0.56360584
0001b0 b7 1e 44 3f a8 37 64 3f d3 c2 2b bd 2e 01 82 3e
       0.7660937 0.89147425 -0.041933846 0.25391525
0001c0 ea bb cf 3e 9e 3a 18 3f 3f e3 48 3e 12 f3 0e bd
       0.40573055 0.5946444 0.19617938 -0.03489978
0001d0 67 14 ef 3e 75 3b 7e 3e b9 29 13 3f e2 71 20 bb
       0.46695253 0.24827369 0.5748554 -0.0024481942
0001e0 52 a8 ce bc 4b 2c 13 bd 4a e1 c2 3e aa 1b 93 bc
       -0.025226746 -0.035930913 0.38062507 -0.017957527
0001f0 0e 3c 33 3f 81 42 72 3e 84 e6 d3 bb 3c 49 63 3f
       0.7001351 0.23658182 -0.0064666886 0.8878362

encoder.2.weight f4 [32, 128]
000000 82 2b dc bb 33 ea a5 bd cf 9e 5e bd 8b 26 9a 3d
       -0.0067190537 -0.081013106 -0.05435067 0.07526883
000010 fd 76 95 3d cf 68 0b 3d f3 82 ea 3c 2b 8d de 3c
       0.07298086 0.0340355 0.028626895 0.027166924
000020 7f 0c 8e bd 22 ca c2 bd ae 06 4b 3d 4e 31 d4 bd
       -0.06935977 -0.0951121 0.049566917 -0.103609666
000030 4a 4b 92 bd cb ee 0a 3d a5 0f 93 3d f8 ea 9a 3c
       -0.071432665 0.033919137 0.07180718 0.01891087
000040 2b 13 87 3b 1c 93 2a bd 2e 55 d9 3c 61 2d 0c 3c
       0.004122158 -0.0416442 0.026529875 0.008555741
000050 f5 30 8e 3c 79 d8 55 3d d9 a7 0c 3d 82 ad a5 3c
       0.017357329 0.052208398 0.03433976 0.020224337
000060 6a 14 6c bd 56 ea 05 bd 2f c9 4b bd a7 e9 9a 3b
       -0.057636656 -0.032694183 -0.04975241 0.0047275606
000070 e2 b3 90 3c f2 38 4d 3c bd 70 97 bd fc 71 3b 3b
       0.0176639 0.012525784 -0.0739455 0.0028601876
000080 b7 c9 b8 bd 4a 9f 95 bd c4 52 5a 3d e4 db e4 bc
       -0.09022849 -0.073057726 0.053301588 -0.027936883
000090 51 d5 d6 bc c3 3b 3f 3d d0 d9 ba 3d 26 83 80 3c
       -0.026224764 0.046687853 0.09123576 0.015687536
0000a0 66 85 d9 bd 97 21 2a 3b 70 01 91 bd a7 f2 64 bc
       -0.10621147 0.0025959963 -0.07080352 -0.013973868
0000b0 7c 49 8f bd c5 78 ae bc 8f 70 80 bd 96 68 f3 bd
       -0.06996438 -0.021297822 -0.06271469 -0.118851826
0000c0 a6 de 0a 3d ed be 39 3c 27 4c 20 bd a8 0d 16 bd
       0.03390374 0.011337024 -0.039135125 -0.036634117
0000d0 31 be 3f 3d 4d e0 b1 bd 40 3b ed 3b a8 6f 02 3b
       0.04681224 -0.0868536 0.007239729 0.0019902978
0000e0 fd 83 35 bd 7a a9 d3 bd d1 6e 72 bd 46 fd a3 bb
       -0.044315327 -0.103350595 -0.059187714 -0.005004558
0000f0 9d fb f3 bd 7e cf a8 bd 4b 5c c3 bc f4 67 c7 bd
       -0.11913226 -0.08242701 -0.02384772 -0.09736624
000100 f1 0b c5 bc 32 d7 8e bd 8e 35 19 3a 11 b7 4c bc
       -0.024053546 -0.06974639 0.0005844467 -0.012494818
000110 90 79 d2 bd 9e 37 61 3c 99 10 2b 3d 31 c4 49 3d
       -0.102770925 0.01374617 0.041763876 0.04925937
000120 78 c4 92 3d cd 23 0a bd ca 9a 96 bc a0 9c 85 bd
       0.0716638 -0.03372555 -0.018384356 -0.065240145
000130 f5 ef 47 3d 97 cc 97 bc 62 61 49 3d f1 48 84 bd
       0.048812825 -0.018530173 0.049165137 -0.06459225
000140 22 21 66 3d aa cb 8b 3c 94 ec 89 3d 54 27 9c bd
       0.05618394 0.017064888 0.06734577 -0.07624689
000150 1f ec b4 3c 77 51 b2 3c 54 9c 11 bd 1c 14 34 bd
       0.022085248 0.021767361 -0.035549477 -0.04396449
000160 6f 12 4a bd 23 31 7e bc 4c 4b 43 bd 72 ba c7 bd
       -0.049333986 -0.015514645 -0.04767923 -0.097523585
000170 e3 fc b6 bb c9 11 9f bd 6c e7 f7 bd e2 8f 90 3b
       -0.0055843457 -0.07767064 -0.12104687 0.0044116834
000180 4e a0 a5 bc e6 07 69 bd f9 97 de 3c 69 9a 7b bd
       -0.02021804 -0.0568923 0.027172076 -0.061426554
000190 2f db db 3c 14 ac af bc 02 c6 a5 bd 78 5a 30 3c
       0.026837913 -0.021444358 -0.080944076 0.010763757
0001a0 81 59 b8 3c 53 24 d3 bc 0a 27 86 bc 32 26 da bd
       0.022503616 -0.025774157 -0.016376037 -0.106518164
0001b0 bb 51 f9 3c 5a 48 fc bd 31 5f 92 3d 05 9c f8 bd
       0.03043448 -0.123184875 0.071470626 -0.12139133
0001c0 5b de b1 bc 68 f4 77 bd be 81 42 bb 4a 00 f5 3c
       -0.021712473 -0.06053582 -0.0029679383 0.029907364
0001d0 dd 68 22 3d 6a e0 0c 3b 24 d1 dc bc e4 73 51 bd
       0.039650787 0.0021496066 -0.026955195 -0.051135913
0001e0 31 37 7b bd 2b a5 6f bd cd ec c8 bd d2 63 a6 3d
       -0.06133193 -0.058507126 -0.09810791 0.08124508
0001f0 d9 90 0a bd b3 88 88 bd 88 97 9f 3d 88 a6 ad bd
       -0.033829544 -0.06666698 0.07792574 -0.08479029
000200 2d f0 4e bd ee 1e 37 3e 1f c9 51 be 8d a8 b7 bd
       -0.05052202 0.17882892 -0.20486878 -0.089676954
000210 4c ad 1d 3d 4e fb 79 3d a4 66 a8 bd d3 c3 03 bd
       0.038495347 0.06103068 -0.08222702 -0.032169174
000220 07 42 fe 3d fb e8 8f 3d ed b5 45 bd 8a a8 83 bd
       0.124149375 0.070268594 -0.0482692 -0.06428631
000230 18 81 c0 3c 34 e5 a6 bd 5b 19 84 3d 99 61 09 3d
       0.023499057 -0.08149186 0.06450149 0.033540342
000240 2e f5 0e 3d 5f bf cf bc 78 b7 c0 3d 1c bd 49 bd
       0.03490179 -0.025359808 0.09409994 -0.049252614
000250 6b 93 25 bd dc 70 0a bd 29 67 e7 bd 0b 1e 5a bd
       -0.04042379 -0.033799037 -0.11298973 -0.053251307
000260 87 a6 fb bd 1b ab e1 3c 19 d1 c9 3c 3a 27 83 3c
       -0.12287622 0.02754741 0.024635838 0.016009916
000270 e7 e5 35 3d 99 fe d5 bd 3a e0 d9 bc 81 59 87 bc
       0.044408705 -0.10448951 -0.026596177 -0.016522171
000280 29 16 a0 bc 4d f1 b0 bc a9 6c 83 ba ae d4 ac bd
       -0.019541817 -0.021599436 -0.001002689 -0.08439003
000290 79 e4 09 bd e3 59 05 3d ec 2c 0c bd ba f9 3a 3d
       -0.033665154 0.032556426 -0.03422253 0.045648314
0002a0 47 da 41 bc 29 52 cf 3d 41 74 98 bd aa c3 23 be
       -0.0118318265 0.10123093 -0.07444049 -0.15992609
0002b0 8d d3 21 bd 7a 34 30 3e 9d 60 70 3d 5a d5 8e be
       -0.03950839 0.17207518 0.058685888 -0.2789715
0002c0 59 54 46 bd 9d 96 a6 bd 2e 99 ae 3d 35 3e 87 bc
       -0.048420284 -0.08134196 0.085253105 -0.016509155
0002d0 1a a1 41 3d f8 09 ee 3c 1b b3 ea bd ca 32 65 3d
       0.04727278 0.029057488 -0.11459943 0.05595664
0002e0 41 f2 8e 3d 2b 13 b0 3a 47 ad dd 3d 63 a4 7b 3c
       0.069798 0.0013433447 0.10824066 0.015359017
0002f0 76 4b 27 bd 9a d0 44 3d f3 21 cd 3d 4f ec 6e 3d
       -0.04084345 0.0480505 0.10016241 0.05833083
000300 5c 93 7f 3d ba 92 69 3d b2 2a d8 bd 2d 79 30 3d
       0.062396392 0.057024695 -0.105550185 0.043084312
000310 b9 ab 0f 3e 34 13 cc bd d7 2a 7e bc 6e ab 83 bd
       0.1403035 -0.099646 -0.0155131435 -0.06429182
000320 84 f4 96 3c 6e a9 f4 3c e7 70 c7 3b 7b 10 50 3b
       0.018427141 0.029865947 0.006086457 0.0031748104
000330 db 1d d4 3c d4 d8 03 be 33 88 88 3d b4 4d 90 3d
       0.025893142 -0.12875682 0.06666603 0.07046071
000340 d1 2e b7 bd fb 58 c7 3d da ec 5d 3d 80 ab 85 3d
       -0.089444764 0.097337686 0.054180957 0.06526852
000350 00 60 68 bd 46 34 90 3d 8c 98 b3 bd 38 ee 15 3e
       -0.056732178 0.0704122 -0.087693304 0.14641654
000360 13 37 6d bd 09 30 39 3d 99 7d 2c bd 67 31 64 3e
       -0.05791385 0.045211826 -0.042111967 0.2228447
000370 8d 83 32 3d 03 f4 26 bd 25 6f 2c 3e d4 b9 0b 3e
       0.043582488 -0.04076005 0.16839273 0.13645107
000380 2f 3d 78 be a2 46 ed 3c ed 44 80 3d 91 a2 49 bb
       -0.2424209 0.028964344 0.062631465 -0.0030767063
000390 e0 fd 93 bd b4 10 9e bd dd c0 a1 3d c2 18 e0 bc
       -0.07226157 -0.077180296 0.07898114 -0.027355555
0003a0 f9 7b 12 bd 68 b5 e4 bd 01 ba 04 3e 72 12 c8 3d
       -0.03576276 -0.11167413 0.1296158 0.09769143
0003b0 fe 93 37 3e ba 9c f0 bc 95 15 8d 3d 81 c1 54 be
       0.17927548 -0.029371608 0.06888882 -0.20776941
0003c0 a8 3c 65 3d 46 df c2 bc 0d da 19 3e e3 42 0c 3d
       0.05596605 -0.023788106 0.15024586 0.034243476
0003d0 97 1d 87 3d ab b9 80 be 54 37 73 3d 70 0b 80 3d
       0.06597441 -0.25141653 0.059378937 0.062521815
0003e0 09 de 94 bd 1d 4c 46 bd 8a 2f 20 3e e8 30 84 3d
       -0.07268912 -0.04841243 0.15643135 0.064546406
0003f0 6e 03 bc bd 36 b6 35 3d 95 3d 04 3d ae 4f b4 3c
       -0.09180342 0.044363223 0.03228529 0.02201065

encoder.2.bias f4 [32]
000000 a4 29 60 bc ee cb cf 3e 6b c5 9e 3e 7e ed ae bc
       -0.013681803 0.40585274 0.31009993 -0.02135348
000010 3b a0 30 3f 06 18 cb bd ba 3f 59 3f 61 5b 0b 3f
       0.6899449 -0.099166915 0.84862864 0.5443631
000020 18 bc 32 be ad c5 0c 3e 9b b0 80 3e 82 4c 8d 3e
       -0.17454565 0.13747282 0.2513474 0.27597433
000030 eb 9d ae bd a9 73 09 3d 7d 86 9b 3e 54 27 f9 bc
       -0.08526214 0.033557568 0.30376044 -0.03041426
000040 be 45 e1 bd 2f e6 d1 3b 26 b8 e4 3d 2a 10 4e 3f
       -0.109996304 0.006405614 0.11167936 0.80493414
000050 87 3d 27 3e c7 be 19 3e b3 08 ed 3e 6b 6a 82 3e
       0.16332065 0.15014182 0.462957 0.25471815
000060 c9 be 79 3e 0d aa ab 3f 2b e5 3f 3f 3a 51 2f 3e
       0.24389185 1.341127 0.7495906 0.17120829
000070 c4 aa bc 3e 21 16 fd bd 37 0f bf 3e cb b1 6c 3d
       0.36849034 -0.123577364 0.37316296 0.057786744

encoder.4.weight f4 [8, 32]
000000 12 c8 2a bd e6 2d 7a 3e 88 38 50 3d 47 67 85 3d
       -0.04169471 0.24431571 0.050835162 0.06513839
000010 ff 9a 84 be 46 2c 67 bc a7 ac 1e 3f 26 22 2b 3c
       -0.25899503 -0.014109677 0.61982197 0.010445153
000020 a9 45 d9 bd 79 b0 a4 3d 16 69 58 bc 2c 6a 56 3e
       -0.1060899 0.08041472 -0.013208648 0.20938939
000030 d9 d2 5c 3d d3 5d c1 3b 92 24 89 3e 11 46 fa 3d
       0.053912017 0.0059010773 0.26785713 0.12220395
000040 34 c8 7e 3d b7 6b fe bd 49 c1 a7 3e fa 1b 8f 3e
       0.062202647 -0.12422889 0.32764652 0.27951032
000050 68 38 46 3e ef 41 0c 3e 09 f3 1e bf a2 c2 bf 3d
       0.19357455 0.13697027 -0.6208959 0.09363295
000060 c9 39 87 3e fd d6 88 3e 24 3a 82 3e 33 c9 21 3e
       0.26411274 0.26726523 0.25434983 0.15799408
000070 5a 36 05 bf 70 db cc bd 53 71 6a 3e 22 29 09 bd
       -0.5203606 -0.10002792 0.22894792 -0.033486493
000080 df 85 08 3e 12 0b 43 3d 65 7c dd 3d 43 cd b0 bd
       0.13332318 0.04761798 0.10814742 -0.086329006
000090 89 57 b2 bd 8e 23 d5 3d a6 d6 cb 3d bb ee 18 be
       -0.08708102 0.10407172 0.0995305 -0.14934818
0000a0 b3 30 c5 bb 56 e4 8a 3d 6c 5b f8 bd 83 3a 78 3d
       -0.0060177683 0.06781833 -0.12126812 0.060602676
0000b0 59 bf 6c 3c 74 d1 2d be 81 b9 77 bc 35 27 05 3e
       0.014449918 -0.16974431 -0.015119911 0.13003238
0000c0 ae b0 5a bc 4f f9 11 be 23 6b 6c bb ee f8 8c bd
       -0.013347788 -0.1425526 -0.00360746 -0.06883417
0000d0 0a 97 08 bd f6 ec 59 bb 47 83 c9 bd bb f1 20 be
       -0.033347167 -0.0033252812 -0.09839492 -0.15717213
0000e0 f9 f3 6c bd 31 4f 89 3d 22 42 14 3d ed 12 b7 bd
       -0.057849858 0.06704558 0.03619588 -0.08939157
0000f0 35 31 94 3d 88 fc d0 bd 80 cf 43 be 23 fa d4 3d
       0.07235948 -0.102044165 -0.19122124 0.10399272
000100 ca 83 b1 bd 16 8b bc bd 7b 7e 20 bc 30 75 6a be
       -0.08667715 -0.09206216 -0.00979578 -0.22896266
000110 1a 1f 82 bd d8 ae 24 be 38 c9 04 3d 48 8b 4d be
       -0.063535884 -0.16082323 0.03241846 -0.20072663
000120 b6 36 cf bd 5d 44 5a be b7 67 c2 bc 46 5a ec 3d
       -0.10117857 -0.21315141 -0.023731096 0.11540656
000130 cc 0d 15 be cc 64 ac bc 58 74 45 3d 94 28 7c 3c
       -0.14556044 -0.021044157 0.048206657 0.015390534
000140 10 70 82 ba 6d 5b 1f bd e1 e4 31 3e 4e cb 50 3d
       -0.000995161 -0.03890555 0.17372467 0.050975136
000150 8c 64 b9 3c 93 05 0f 3c 63 f1 f1 3d 56 56 67 be
       0.022630952 0.008729356 0.11813619 -0.22591528
000160 d4 b6 0c 3c 83 e0 53 be de 09 b5 bd 63 80 95 bd
       0.0085885115 -0.20691113 -0.08839773 -0.072998784
000170 6d f0 16 3e da 02 6b bd b9 e3 55 be ca b0 03 3e
       0.14740153 -0.057375766 -0.2088765 0.12860408
000180 ff 1a a9 3d 14 1b 24 bd f2 d8 23 3d 10 1e 8b 3d
       0.08257102 -0.040064886 0.040001817 0.06792843
000190 fe a6 d8 3e 3f a1 cd bd df c1 73 3f c6 df d3 bd
       0.42314905 -0.10040521 0.952177 -0.10345416
0001a0 34 c9 2d 3d f5 0c 28 3d de 23 17 3e f2 0d 6a bd
       0.04242821 0.04102798 0.14759776 -0.057142206
0001b0 27 8f 22 bd a6 c4 c7 bc eb e4 85 bc ea a9 7e bd
       -0.039687302 -0.024385761 -0.016344508 -0.06217376
0001c0 43 ee 0a be ba 28 67 3e 77 67 a5 3e 37 83 33 3c
       -0.13567452 0.2257413 0.323055 0.010956577
0001d0 65 c9 c6 3d 6f 9d bc 3d 46 49 0d 3e 08 bf 2d bb
       0.09706382 0.092097156 0.13797483 -0.0026511569
0001e0 39 90 24 3e f9 fd 32 bd c6 7c bc 3d 2b b9 08 3e
       0.16070642 -0.04369924 0.09203486 0.13351886
0001f0 aa f9 0d be 7d e1 04 be 49 86 b0 3c 4d ae c5 bd
       -0.1386477 -0.12976642 0.021548407 -0.09652386
000200 e7 b2 6b bc cb 86 48 3d 79 cb 2c 3e b6 4f d3 bd
       -0.014385915 0.048956674 0.16874494 -0.10317938
000210 72 02 e3 be 4d aa 82 bd e2 3a c2 be 5c fe 4d 3e
       -0.44337803 -0.063801385 -0.3793555 0.20116562
000220 45 44 03 3d ed 7d 33 3e 65 9c 75 3e 5f 75 99 3d
       0.03204753 0.17528506 0.23985441 0.0749309
000230 89 70 3c 3c 6b 8b 30 3e d0 2b 03 3e 6b 68 11 3e
       0.01150144 0.17240684 0.12809682 0.14199989
000240 34 72 03 be 60 a6 b5 3d 23 4b 60 bd 1b aa 4b 3e
       -0.12836534 0.08869624 -0.054759156 0.19889109
000250 d8 df 05 bc 18 db e0 bd ad fe 86 be f2 c2 ad 3d
       -0.008171044 -0.10979289 -0.26366177 0.084844485
000260 b2 28 a1 3d 62 59 9a 3c 8a 50 9c 3b c9 4a 3a 3e
       0.0786909 0.01884145 0.004770343 0.18192591
000270 9e be 8e 3d f2 34 f4 3d 33 cf f3 3d 22 bb 25 3e
       0.06969951 0.11924161 0.119047545 0.16184667
000280 9f db f6 3c 97 a8 fa 39 39 a7 b0 bd e1 0a ad bd
       0.03013402 0.00047809325 -0.08625645 -0.084493406
000290 80 55 2b bc cc 36 21 3e ab 04 aa 3d 19 3c b7 bb
       -0.0104573965 0.1574356 0.083016716 -0.005591881
0002a0 a6 76 0f be a2 7b 14 3e 37 57 85 3d 1d 90 00 3e
       -0.14010105 0.14500287 0.065107755 0.12554975
0002b0 a3 83 64 be 8d e4 40 bc a8 a5 ec bd 4e 68 68 3d
       -0.2231584 -0.011773241 -0.11555034 0.056740098
0002c0 bf bd 07 bd e0 e6 12 bd 49 0c 3a 3d bc 46 4d be
       -0.03313994 -0.03586471 0.045421872 -0.20046514
0002d0 3d 49 9b 3d 93 14 e0 bd fb c8 99 bd 89 6c 94 3b
       0.075823285 -0.10941424 -0.07509037 0.00452954
0002e0 d4 1b 60 be f2 af e6 bd 6f c8 c4 3c b4 8b ef bd
       -0.21885616 -0.11264028 0.024021355 -0.11696568
0002f0 07 6c 7b bb da 6c c8 3d e8 d9 5c 3b f2 16 ba bd
       -0.003836395 0.09786387 0.0033699218 -0.09086408
000300 59 7b 17 3d 53 82 93 3b c1 40 3b be 92 6c 90 be
       0.036982868 0.00450162 -0.1828642 -0.28207833
000310 19 15 63 bd 78 22 d8 3c 76 98 03 be 9e 33 70 3d
       -0.055440042 0.026383623 -0.12851128 0.058642976
000320 b1 af 79 3d 60 8d 37 3e 80 71 35 3e 93 87 e3 3d
       0.060958568 0.17925024 0.17719078 0.11109843
000330 18 5b 88 be ea 18 08 be e4 72 bb 3d a7 5c 86 bd
       -0.26632 -0.13290754 0.09152773 -0.06560641
000340 81 e1 94 bc e7 fa 09 3e ae c0 28 3e e2 e9 9b bd
       -0.018173935 0.13474618 0.16479751 -0.07612969
000350 c4 f7 f5 be 7d 76 a1 bf a6 c4 82 3d b5 3e 45 3e
       -0.48040593 -1.2614285 0.06385164 0.19262202
000360 97 1d e2 bd fa 71 04 3e ec 5c 8e 3e d1 c8 8a bd
       -0.110408 0.12934104 0.2780527 -0.06776584
000370 ef 1a 54 3e 13 5e db 3d c7 8a 18 bc 56 43 df 3d
       0.207134 0.107113026 -0.009310431 0.10901515
000380 e4 f7 a8 ba 7c 57 49 3e 7f 01 33 bd d8 37 aa bd
       -0.001289126 0.19662279 -0.0437026 -0.083114326
000390 95 32 33 3f 9a 6b b7 bc b1 a7 e0 be c8 9b ba 3a
       0.6999906 -0.022390176 -0.43877938 0.00142371
0003a0 09 dc 2a bd 26 5d e4 bc 6f d2 42 be c9 f2 e7 3d
       -0.041713748 -0.027876448 -0.19025587 0.113256045
0003b0 7a 27 32 be 10 17 63 3d 28 c7 cb bc d2 92 d5 3d
       -0.17397872 0.055441916 -0.024875239 0.104283944
0003c0 c9 24 5a bd 79 27 ad 3d 59 47 45 be 62 01 36 3e
       -0.053257737 0.084547944 -0.19265498 0.17773965
0003d0 13 2f e4 bd b0 50 07 be 3d b5 07 3f a9 68 34 bd
       -0.11141791 -0.13214374 0.5301092 -0.044045124
0003e0 20 c0 52 3e ea 72 45 3d 41 50 67 3d 07 23 05 3d
       0.20581102 0.048205294 0.05647302 0.032504108
0003f0 ef ad be 3e 80 70 38 3d f8 3c fa 3d 70 55 05 3e
       0.37242076 0.045029163 0.1221866 0.13020873

encoder.4.bias f4 [8]
000000 00 bc 2c 3f b4 da 98 bd a3 70 97 bc 33 88 f8 bd
       0.67474365 -0.07463589 -0.018486327 -0.12135353
000010 21 e4 19 3e cc ab d5 3d 5e 20 fc 3e 05 45 ab 3e
       0.1502843 0.10433158 0.49243444 0.33451095

fc_mu.weight f4 [2, 8]
000000 c9 48 41 be 79 9b a8 3d 14 94 ad be 1a 13 2d be
       -0.18875422 0.08232779 -0.33902037 -0.16901818
000010 6f 0e dc bd 90 3a 78 bd 27 61 89 3e 87 1c 1d 3f
       -0.107449405 -0.060602725 0.26831934 0.61371654
000020 0e 19 0f 3e 3d 8a 85 3e b8 ba 10 3e cb f0 c2 3e
       0.13974401 0.2608203 0.14133728 0.38074335
000030 b5 d8 d5 be 6f 7a 7d be c2 e0 04 bf d8 89 90 3b
       -0.41766897 -0.24753736 -0.51905453 0.0044109635

fc_mu.bias f4 [2]
000000 e9 05 1a bd c4 a7 d9 3d
       -0.037603293 0.10627702

fc_logvar.weight f4 [2, 8]
000000 30 0f 6e bf 22 ba 3c be 6c d3 df bc 11 4b ea 3e
       -0.92991924 -0.18430379 -0.027322493 0.45760396
000010 24 31 2c 3e 14 a6 b2 bd dc f7 d2 bd b6 b0 25 bf
       0.1681562 -0.08723083 -0.10301182 -0.64722764
000020 5d 4c 2d bf 71 22 08 3e 1e 1d 85 3e 2e c7 a3 3e
       -0.67694646 0.13294388 0.25998777 0.319879
000030 40 30 50 be c2 b0 87 3e b8 d5 99 3e be 27 47 bf
       -0.20330906 0.26502043 0.30045867 -0.77795017

fc_logvar.bias f4 [2]
000000 8a d3 4f bf 4d 2a 60 bf
       -0.8118216 -0.87564546

decoder.0.weight f4 [8, 2]
000000 70 5a 86 3f fc 3d 48 3f fd 9b 89 3e 5d a9 5a bf
       1.0496349 0.7821958 0.26876822 -0.8541468
000010 a5 7e 9f bf 70 96 70 bf 71 3b 46 3f b9 b5 a3 bf
       -1.2460524 -0.9397955 0.7743445 -1.2789832
000020 bb 63 50 bf a5 d0 41 3f 44 af e9 be 2e 1a 2a bf
       -0.81402177 0.7570899 -0.4564153 -0.664462
000030 4c 52 4c be 38 6d 34 bf 89 6a 85 3f 14 d1 67 bf
       -0.19953269 -0.70479155 1.0423137 -0.905534

decoder.0.bias f4 [8]
000000 38 2d bb bd b2 e7 eb 3e 79 cb be 3e 38 40 42 bf
       -0.09139484 0.46075207 0.37264612 -0.7587924
000010 13 01 8c be 02 44 4b bf e0 e9 6c be 3d 9a 1d 3f
       -0.2734457 -0.79400647 -0.23136091 0.61563474

decoder.2.weight f4 [32, 8]
000000 1a 26 88 bd d5 ec 0d 3c 28 bf a3 3d 38 74 22 be
       -0.06647892 0.008662422 0.079954445 -0.15864646
000010 59 37 c3 bd 95 ef 44 bf 41 b2 a6 3e 6b bb ba 3e
       -0.09532041 -0.76928073 0.32557872 0.36471114
000020 8c a2 44 bf ac 66 2b 3e 15 28 29 3f 16 fd 7c 3e
       -0.76810527 0.16738385 0.66076785 0.2470592
000030 6b ea 84 3d 97 36 93 3f c2 7d b0 3f c5 85 a8 bb
       0.06490024 1.1501034 1.3788378 -0.0051428997
000040 39 2c e4 be 26 6b d9 3e ed a4 26 bf b5 4e 81 3e
       -0.4456499 0.4246456 -0.65095407 0.2525536
000050 1e be a8 3e e1 9f 23 bf 5e 0b 2d 3f d6 2e 35 be
       0.32957548 -0.6391583 0.6759547 -0.17693648
000060 98 4b 8e 3e 12 32 2e ba 6c 0d c8 bd e1 1a 68 3f
       0.27792048 -0.00066450343 -0.09768185 0.90666014
000070 01 3e 35 3f 16 8a 03 3f 0a 35 fb 3e 2d ed 66 bd
       0.70797735 0.5138258 0.49063903 -0.056378532
000080 d8 4e e8 3d b6 69 6f be 56 74 95 3e 20 05 0b 3f
       0.11343163 -0.2338017 0.2919032 0.54304695
000090 29 79 db be 3d 85 8a bd 47 63 28 3f 94 a3 0f 3e
       -0.42865875 -0.067636944 0.65776485 0.14027244
0000a0 5b 81 7d 3f 1d 80 6c 3e 71 ab a1 bf 41 c0 e3 3d
       0.99025506 0.23095746 -1.2630445 0.11120654
0000b0 40 b4 a4 3e 8c e8 28 3f bf 01 7c bd e2 34 81 3e
       0.3216877 0.6597984 -0.061525103 0.2523566
0000c0 ef cf 68 3f f1 70 fb bc da 52 a2 bf dd 38 92 3e
       0.9094228 -0.030693503 -1.2681534 0.28559008
0000d0 9e 6b f3 3e af f5 01 3f ef 69 17 3e a8 f9 24 be
       0.47543043 0.5076551 0.14786504 -0.16110861
0000e0 5e a8 a4 bd 4e 8c 8b 3d 55 c3 ff 3e 52 ae 92 3e
       -0.08039926 0.0681387 0.49953714 0.2864862
0000f0 dc 83 53 3e a3 59 2b bf ba 57 2c bd 5f ad 18 bf
       0.20655769 -0.6693365 -0.04207585 -0.59639543
000100 78 09 cc 3d 2c 66 00 bf c1 83 bf 3e f9 ea 58 3f
       0.099627435 -0.501559 0.37405208 0.8473354
000110 08 13 89 be 5d b0 e8 be 30 81 70 be ee 58 d6 be
       -0.26772332 -0.45447055 -0.23486781 -0.41864723
000120 3e b8 d0 be f5 78 30 be b8 ce aa 3e 0b 49 56 bf
       -0.40765566 -0.17233641 0.3336084 -0.83705205
000130 64 95 60 3f 37 f0 9a 3f 7a 81 33 3e fa 9b c9 be
       0.8772795 1.2104558 0.1752986 -0.39376813
000140 d7 56 a7 be fd 3f b7 3e 45 7e 06 3f 6f 71 32 bf
       -0.3268344 0.35791007 0.5253642 -0.69704336
000150 c5 51 e8 be 8b c3 1a bf 13 f3 ff be 4b 8b ed 3e
       -0.45374885 -0.60454625 -0.49990138 0.46395335
000160 55 3b f5 3e b2 39 c4 3e 91 8b 5b 3e 21 52 fa be
       0.4789683 0.38325268 0.21439959 -0.48890784
000170 78 6e 0d bf f9 d3 35 3f fb f9 9a bd f0 ca 1e 3f
       -0.55246687 0.7102657 -0.07567211 0.6202841
000180 e7 c1 bd 3e 73 bc 02 3e ae 37 0f 3f 58 7e b5 bd
       0.37061998 0.127672 0.55944335 -0.08861989
000190 3c 9d 0c bf 2f e7 7b bd bf 00 ef 3e 3e 90 f7 be
       -0.5492742 -0.06149977 0.46680257 -0.48352236
0001a0 04 37 80 bd 9b a5 8d 3e 9e bc 15 bf 21 d3 95 3e
       -0.062604934 0.2766541 -0.5849093 0.2926264
0001b0 ea 50 13 3f 9b 04 b1 3e 3d 25 18 bf a7 b5 09 3f
       0.5754534 0.34573826 -0.5943182 0.53792804
0001c0 a6 c8 3e 3e 3a bc 88 be fb 25 c2 bd 91 de 0e be
       0.18631229 -0.26706105 -0.094799004 -0.1395209
0001d0 6e 41 43 be 00 62 88 3e a3 0f 8c bd f9 66 10 bf
       -0.19067928 0.26637268 -0.0683892 -0.56407124
0001e0 e9 10 93 bd ae 16 0a be ff 0e 13 bf 52 a8 8c 3e
       -0.0718096 -0.13485214 -0.5744476 0.27472168
0001f0 e1 48 9e bf 0b 55 41 3d f1 b8 1f 3f 89 ec 0c 3f
       -1.2365991 0.047200244 0.62391573 0.55048424
000200 08 bd 8a 3e 24 e0 ac 3e 75 34 a1 3e 12 ca fc be
       0.27097344 0.33764756 0.31485334 -0.49372917
000210 32 eb 87 3e 6c 4f 08 3f 45 ac 93 3e dc 5d aa bd
       0.26546627 0.5324619 0.2884237 -0.083186835
000220 30 85 81 bd f0 55 fd be c3 83 72 3e 29 25 50 3e
       -0.063242316 -0.49479628 0.23683076 0.20326675
000230 65 51 4f 3f 73 90 d5 be 76 a3 f0 be af 35 38 3e
       0.80983573 -0.41711769 -0.4699971 0.17989229
000240 c6 0b 09 3d b2 f9 b4 be 9c 60 ce bd e5 c7 fe bd
       0.033458494 -0.35346752 -0.100770205 -0.124404706
000250 e5 99 56 bd 66 b2 20 be 13 5c 8e be e6 98 41 bd
       -0.05239286 -0.15693054 -0.27804622 -0.047264956
000260 bf 41 14 bf dd dd 4d 3f 79 43 0d 3f 01 fb 5a be
       -0.5791282 0.8041666 0.5518108 -0.21384813
000270 a7 3e 43 bf f2 2b 4e bc d1 19 08 3f da e6 97 3b
       -0.76267475 -0.01258372 0.5316439 0.004635674
000280 a7 8d 3d 3f 41 39 30 bf bf 6f be bf b9 27 ce 3d
       0.7404427 -0.6883736 -1.4877852 0.1006617
000290 df 71 d9 3c 28 9f 6b 3e c8 bd 20 be c7 19 5d be
       0.026543556 0.23009932 -0.15697396 -0.21591865
0002a0 8b b9 ba bd de 63 a6 be 8f dd 3b bf 6f 21 e8 3e
       -0.09117421 -0.32498068 -0.73384947 0.45338008
0002b0 9d 11 be ba 28 a1 c6 be c8 5c eb 3d 97 e1 38 be
       -0.0014501099 -0.38794827 0.11492306 -0.18054806
0002c0 51 a9 3c 3d aa c3 63 be 5a 44 37 3f 26 5c 86 3e
       0.04605991 -0.22242609 0.7158867 0.2624218
0002d0 cc f0 94 bc ea cc 67 bf 6a 38 9e be f4 2b aa be
       -0.018181227 -0.9054705 -0.30902416 -0.3323666
0002e0 25 cd 48 bf dd 69 18 3f 5d 8b 92 be e1 a3 30 3f
       -0.78438026 0.59536535 -0.2862195 0.6900006
0002f0 71 c6 61 be cc 41 2d be ca 2b 30 3f 60 90 ad 3e
       -0.22048356 -0.16919631 0.68816817 0.33899212
000300 9f 9a f8 bc d9 b2 64 be 66 f6 4a 3e 52 1f f0 3e
       -0.030347167 -0.2233385 0.19820556 0.46898896
000310 50 ae ea be 5d c3 88 be 66 1c 37 3f 8f 04 43 be
       -0.45836115 -0.2671155 0.7152771 -0.19044708
000320 96 ee 05 3f d9 64 e9 3e 43 45 71 bf ff b6 9e be
       0.5231718 0.45584753 -0.9424631 -0.3099899
000330 32 dc 66 3e c3 3d 5c be cf 70 cb be 58 a2 61 3f
       0.22544935 -0.21507935 -0.39734504 0.8813834
000340 ae 8b 1a be e2 44 50 3e a7 f9 1c bf 1c a6 57 3f
       -0.15092346 0.20338777 -0.6131844 0.8423784
000350 7e b9 f7 3c 35 91 ea 3e e8 50 03 3f 4a 10 0a 3f
       0.030239817 0.4581391 0.5129533 0.53931105
000360 58 c5 36 be 6e b6 02 3f 77 aa 2d be 83 f5 0f bc
       -0.17848718 0.51059616 -0.16959558 -0.008786562
000370 a3 c8 cc bd b5 75 55 bf a6 fb 5e be 5d 4d 19 bd
       -0.09999206 -0.8338273 -0.21775684 -0.037427295
000380 20 28 a1 be 6f cd b5 bd 71 c1 ab be cc 3a 8b 3e
       -0.31475925 -0.08877074 -0.33546022 0.27193296
000390 ea 26 c6 3e fa 7a dd be d5 bf 6e 3d 25 82 c9 3d
       0.38701564 -0.43257886 0.058288414 0.09839276
0003a0 7a 5d 9b 3e be e8 db bd 80 35 94 be 6d c2 c9 3c
       0.30344754 -0.107377514 -0.28947067 0.024628842
0003b0 9a f6 b7 be 19 62 b8 be 1e 8a 6e 3d 97 47 1d 3f
       -0.3593033 -0.36012343 0.058237188 0.6143736
0003c0 f6 36 6b be a1 bd 03 3f e5 c3 89 be 96 76 b2 be
       -0.22970185 0.51461226 -0.26907268 -0.348561
0003d0 22 00 4a 3e 7d ec 3f 3f 35 24 b2 3e 41 26 8d bd
       0.19726613 0.7497023 0.3479325 -0.06892062
0003e0 d4 ad f5 be c0 4d c4 3d 82 00 37 bf 30 ea 96 3f
       -0.47984183 0.09585142 -0.7148515 1.1790218
0003f0 84 78 aa bd a2 69 c2 3d 2b 86 af be 5a d1 61 3d
       -0.08323768 0.09492804 -0.3428205 0.055131294

decoder.2.bias f4 [32]
000000 4f b7 ca 3e 07 2c 9e be cf 19 21 3f 95 11 15 bf
       0.39592978 -0.30892965 0.62930006 -0.58229953
000010 a8 21 f4 3d 1f b4 80 be 5d 9a 7d be 98 e7 17 3f
       0.11920482 -0.2513742 -0.24765916 0.5933776
000020 3b 20 1e 3f 58 ec 83 3d db 29 7f 3d 38 34 67 be
       0.6176793 0.06441563 0.062295776 -0.22578514
000030 6a fd 32 3e 17 b9 90 bd 42 c2 00 be 73 84 f9 3e
       0.17479482 -0.07066553 -0.12574103 0.48733863
000040 fe 15 81 3e 3f 3f 99 3e bd 0b 13 be 01 b7 f7 3c
       0.2521209 0.29931065 -0.14359947 0.03023863
000050 8e 60 1d 3f a3 b2 54 3f 3d 0b bc 3e 37 3b ef be
       0.61475456 0.8308508 0.36727324 -0.46724865
000060 cb 0e a6 3e 64 8c ca be 2d e8 17 bf ea 1d 28 3f
       0.3243316 -0.39560235 -0.5933865 0.65670645
000070 ee ae 40 3f df 00 6b be f2 e5 bb 3e cc df 7d bf
       0.7526692 -0.22949551 0.36698872 -0.9916961

decoder.4.weight f4 [128, 32]
000000 72 08 98 3e f9 b8 96 be ae 40 c9 3e 01 b4 1b 3e
       0.29693943 -0.29437998 0.3930716 0.15205385
000010 76 e4 a3 3e 79 34 e9 be 34 1d ba be ff 90 01 bf
       0.3201024 -0.45547846 -0.36350405 -0.5061187
000020 ed b5 11 3f 4f 15 2d be 33 89 d7 be 3b 04 d0 3c
       0.5691822 -0.1690266 -0.42096862 0.025392642
000030 b5 69 5d bf 99 75 47 3d 57 24 13 3e 9a b6 f1 3e
       -0.8648942 0.048696134 0.14369331 0.47209626
000040 4b 84 a9 be 13 b7 92 bd f6 5f df bd 18 53 c4 be
       -0.33108744 -0.07163825 -0.10906975 -0.38344646
000050 d8 64 62 3e 37 c1 10 3f 1e af 5a be 7f 1c 9d 3e
       0.22108781 0.5654482 -0.21355864 0.30685803
000060 87 79 e9 3e da 47 84 3d 91 6b bc 3d 8c 63 94 3e
       0.4560053 0.06459017 0.09200204 0.28982198
000070 f3 9e c7 3e 1a e8 0c 3e 9c b1 02 3e ec 06 e5 bc
       0.38988456 0.13760415 0.12763065 -0.027957402
000080 fc 09 4f be 7d a1 c4 3d 93 09 45 be 9b 82 0a 3d
       -0.20218652 0.09601114 -0.19241934 0.03381596
000090 2a 5d 94 bd 46 fa 06 be 93 55 0c bd 66 cd 20 be
       -0.07244332 -0.13181409 -0.034261297 -0.15703353
0000a0 91 14 15 be 65 2f 3d 3b 34 ca e0 3c ea b3 12 be
       -0.14558627 0.002886736 0.027440168 -0.14326444
0000b0 04 61 36 3d 60 7d 28 be 1b b9 b3 bd 80 01 8b 3d
       0.044526115 -0.16454077 -0.087755404 0.067873955
0000c0 4f 22 05 be 36 a3 16 be 19 56 05 3e 49 81 89 3d
       -0.13001369 -0.14710698 0.13021125 0.06714112
0000d0 b0 10 cd bd ad af 41 3d 2f e5 0e bc 66 2c e3 bc
       -0.100129485 0.047286678 -0.008721634 -0.027731132
0000e0 a0 e3 c0 3d 33 79 08 be 72 d1 b9 bd 64 2d 15 be
       0.09418416 -0.13327484 -0.09073152 -0.14568096
0000f0 ac 66 04 be 73 d9 6a 3c ef 60 35 be 6a 01 b0 bd
       -0.12929791 0.0143340705 -0.17712758 -0.0859402
000100 60 a9 af 3d b8 e0 5d 3c 08 6b 41 3f 68 be 9a 3e
       0.085772276 0.013542347 0.7555394 0.30223393
000110 0d 6c 7e bd 9f 74 16 bf b3 3e be be 77 f8 b2 3d
       -0.062114764 -0.587717 -0.3715721 0.08738797
000120 c2 f4 dd bd 45 67 1e bf 93 d1 a7 3e aa 1e f7 bd
       -0.108376995 -0.61876327 0.3277708 -0.120663956
000130 05 0f 8b bc 94 9f bb 3e b3 9b 12 be bd e1 6c bd
       -0.016974935 0.36645186 -0.14317207 -0.05783247
000140 3f 92 0a 3e fc e0 83 be b7 0d 50 3d dd fd 0b 3e
       0.13532351 -0.25757587 0.05079433 0.1367106
000150 e0 0a 02 3f 6d d2 41 3f c1 e0 fb bc 81 24 09 bf
       0.50797844 0.7571171 -0.03074682 -0.53571326
000160 6d 33 4d 3d 3f d8 d4 be 22 e4 cc 3d d3 68 11 3f
       0.05009787 -0.41571233 0.100044504 0.56800574
000170 03 f5 d6 3c bc c5 3c 3d fa 4b 3e 3e 88 56 0c bf
       0.026239878 0.04608701 0.1858367 -0.54819536
000180 2d ef 57 3c 61 e8 00 3f c3 15 86 bc 8e 12 2d bf
       0.013179583 0.5035458 -0.016367799 -0.6760644
000190 20 30 c4 3e 0f 77 05 be 34 fc f2 be 8e 70 03 3d
       0.38317966 -0.13033698 -0.4745804 0.032089762
0001a0 f1 22 90 3c 89 da 0b be 31 30 0a 3d c5 da 9d bd
       0.017594786 -0.13657583 0.033737365 -0.077077426
0001b0 c3 5c 46 3b 11 d8 85 3e 3b e6 63 bb 73 79 cc 3c
       0.0030267693 0.26141408 -0.003477468 0.024960255
0001c0 c4 56 52 be c2 08 50 3e d4 e9 03 be ee 62 5f be
       -0.20540911 0.20315841 -0.12882167 -0.21815082
0001d0 61 7a 30 3e 41 74 f0 3d de 7c 93 3c bd 1e 83 3e
       0.17234184 0.11740924 0.018003877 0.2560939
0001e0 ab b6 91 3e d1 73 8f 3d a3 56 17 3f 56 16 2c be
       0.28459677 0.07004512 0.5911657 -0.16805395
0001f0 a6 aa 62 be 94 b3 5c 3d 5b 36 54 be 1e b0 a0 bf
       -0.2213541 0.053882197 -0.2072386 -1.2553747
000200 b8 ce c5 bd e2 8b 47 3e a5 c3 e1 3e 7c e5 54 bd
       -0.09658569 0.19486955 0.44094577 -0.051976666
000210 7b d4 70 be 72 72 7f bd 09 ec 5a 3e 2b f6 02 be
       -0.23518555 -0.062365003 0.21379103 -0.12789218
000220 4c d7 82 3d 75 30 ad bf b7 2f 47 3e 88 fa ca bd
       0.06388721 -1.3530413 0.19451796 -0.09911066
000230 e3 c8 ae 3e 30 7f ce be 7c 48 1c be 59 85 7b be
       0.3413764 -0.4033141 -0.15262026 -0.24562587
000240 6a a9 0b 3e 3b 9d b9 be 1e 95 de 3d a9 9d f3 3e
       0.13638845 -0.3625277 0.108682856 0.47581223
000250 cf fa cb 3e ea 3d f1 3e 9e a1 b9 be e5 c8 4e 3e
       0.3983979 0.4711755 -0.36256117 0.20193823
000260 fa 2e 0c 3d 42 bc 87 bf 4d 2e 1f 3e a3 42 83 3e
       0.034224488 -1.0604327 0.15545006 0.25636777
000270 6a 8b e7 3d 73 9d 62 bf 94 5f 35 3f 53 e0 cc bd
       0.11305888 -0.885215 0.70848966 -0.10003724
000280 74 3d ec 3c 7d af 9a be f5 0c 1c bf 02 d5 5a 3e
       0.028837897 -0.30212012 -0.6095727 0.21370319
000290 f4 2f 75 3c df 06 42 bd 68 12 0f be 66 ed c6 3d
       0.014965046 -0.047369834 -0.13971865 0.09713249
0002a0 64 39 14 3f 1d 9f 12 3f 00 d8 d1 bd e8 98 ca be
       0.5790007 0.5727404 -0.10246277 -0.39569783
0002b0 43 5a 79 be 3e 55 f1 3d a1 cc 7c 3e 0e 36 2a 3f
       -0.24350838 0.11783837 0.24687435 0.6648873
0002c0 8d fc 04 3c 40 d7 07 3f 6f 1f ac bd 75 88 0e bf
       0.008116853 0.5306282 -0.08404433 -0.55676967
0002d0 68 43 88 be d6 21 21 3e 45 d1 cc 3e 2f 4f 1d 3d
       -0.26613927 0.15735564 0.4000341 0.038405593
0002e0 fb cb 26 3e 2c ef 82 3e 2a b5 46 3e 0d 4d ce bb
       0.1628875 0.255731 0.19405046 -0.0062958063
0002f0 9c da b6 3e c3 30 87 bd 74 4b e0 be ef 74 58 3f
       0.3571366 -0.066010974 -0.43807566 0.84553427
000300 55 23 78 3e a9 77 46 3e d0 5e 09 be 0d bc 43 be
       0.24232228 0.19381584 -0.13415074 -0.19114704
000310 80 a1 04 3e 8b cb 56 3e 74 f5 9e 3d 70 00 af be
       0.12952232 0.20976083 0.0776166 -0.3418002
000320 a6 47 23 bf 5e 33 c2 3d 03 c4 f1 3e 22 44 13 3f
       -0.637812 0.09482454 0.47219858 0.5752584
000330 d6 ae af 3d 3c ea b1 3e 5f 04 ac bc ad c3 bb 3d
       0.08578269 0.3474902 -0.020998178 0.091681816
000340 22 50 23 3d f2 04 35 be 7d 26 39 3e 55 dd 58 bd
       0.039871342 -0.17677668 0.18081088 -0.052945454
000350 b7 af 71 be 01 73 1e bf 3b cd 98 be b8 7d 39 3d
       -0.23602186 -0.6189423 -0.29844078 0.04528591
000360 cf 47 d0 be f8 eb d7 3e 76 25 6e bd dd 66 fc 3c
       -0.40679786 0.42172217 -0.058141194 0.030810768
000370 86 d9 01 bd 35 d6 bb 3e 87 2b c2 3e 43 ae 08 3f
       -0.031701587 0.36686864 0.37923834 0.533909
000380 1c 0b d2 bd 59 32 03 be ba 82 04 3f bc 8c 92 be
       -0.10256025 -0.12812175 0.5176197 -0.28622997
000390 ec bd a3 3d be 7f a5 3d 5d 00 3c 3a 0b ff 8d 3d
       0.07995209 0.080810055 0.0007171685 0.06933411
0003a0 78 9a fc bd df 87 24 be 75 7e 35 3e f7 69 9c 3c
       -0.1233415 -0.16067456 0.17724021 0.019093497
0003b0 71 8f 35 3d b4 22 4f 3e 5a 2b 38 be 9f 2a 0e 3e
       0.04432625 0.20228082 -0.17985287 0.13883446
0003c0 eb 62 fc 3d 42 55 c9 bd ea 05 a4 bd d3 96 30 3e
       0.123235546 -0.09830715 -0.080089405 0.17245035
0003d0 35 ed 68 3c 69 77 8b bd 31 c7 a1 3e 05 8a c7 3d
       0.014216711 -0.06809885 0.31597283 0.09743122
0003e0 b9 42 19 be 71 fb ff bc 1d 46 b3 bd f3 a7 43 bc
       -0.14966859 -0.031247826 -0.087536074 -0.011941898
0003f0 c5 92 1a be bf ee eb 3c 46 01 d7 bd 75 65 d3 be
       -0.1509505 0.028800366 -0.1049829 -0.41288343

decoder.4.bias f4 [128]
000000 aa 64 40 3e 40 a4 bf bd 58 ae ab 3e 4e 09 68 3d
       0.187884 -0.093575 0.3353145 0.0566495
000010 a5 b8 96 3e cb a5 76 3e 75 e4 0c be a1 54 1f bd
       0.29437748 0.24086682 -0.13759024 -0.038899068
000020 03 a0 b0 3e 6a dc 16 bd 06 91 f3 bd e5 6d 29 3e
       0.3449708 -0.036831297 -0.118928954 0.16545828
000030 62 12 cc bd 9f 5f c3 bd 3d c5 2a 3e 48 33 7c 3e
       -0.09964444 -0.09539723 0.16676803 0.24628937
000040 28 cf cd 3c d1 52 33 3d 2f 4b ed 3e ca 89 90 be
       0.025123194 0.04378015 0.46346423 -0.28230125
000050 d4 b6 07 3e b4 06 49 3e cf 00 ee 3d 8f 3f c6 3e
       0.13253337 0.19631463 0.11621248 0.38720366
000060 b4 21 31 be 01 76 b2 3e af b0 8d bc d4 92 b3 bc
       -0.17298013 0.34855655 -0.017296163 -0.021920599
000070 7b 5a eb bd 89 dd 0a 3d 9a fe d9 3d d8 d7 b2 3e
       -0.11491867 0.03390268 0.106442645 0.349303
000080 fd dc d0 3b f8 d4 15 be ec af ff 3d 1d 0d f1 bc
       0.006374 -0.14632022 0.12484726 -0.029425198
000090 15 08 05 be b6 7a d0 3d df 9f 4b 3d 4d 61 08 3e
       -0.12991364 0.10179655 0.04971301 0.13318367
0000a0 f6 fd 9b 3c b0 c3 8d 3d 74 f9 85 bc 6d 5e ed 3d
       0.019041996 0.0692209 -0.0163543 0.11590276
0000b0 2b 61 1f 3e cb df 1d be d2 8c 91 3d 52 6d 87 3e
       0.1556441 -0.15417401 0.071069375 0.26450592
0000c0 2f 91 32 3d e4 a0 a2 3d 61 2a 86 3c 57 a1 43 bd
       0.04359549 0.07940844 0.01637763 -0.047761288
0000d0 e2 d5 fa ba 8f 4c 49 be 68 c2 62 3e 0a c9 0a bd
       -0.0019137228 -0.19658111 0.22144473 -0.033883132
0000e0 0d 65 ee 3d b1 ed ba 3e ce 62 f3 bd 62 02 df 3c
       0.11640368 0.3650947 -0.1188408 0.027222816
0000f0 23 d4 80 3d 40 6b 5d 3d 30 5a 03 be 55 96 d8 3d
       0.06290462 0.05405736 -0.12827373 0.105755486
000100 db 35 31 bd f9 e2 16 3f 25 f4 32 be bd 9a b6 bd
       -0.04326425 0.5894008 -0.17475946 -0.08916233
000110 b4 05 bc bd 3e 5f a2 3e 13 17 d1 3d 2d 47 14 bd
       -0.09180775 0.3171329 0.10209479 -0.03620069
000120 f7 48 25 3c 28 0b ad 3d a2 aa 07 be 42 93 c9 bd
       0.010088197 0.084493935 -0.13248685 -0.0984254
000130 91 01 7c ba 8f 45 bb 3d 00 50 54 bc 72 3a f0 bc
       -0.00096132705 0.091441266 -0.012958527 -0.029324744
000140 f2 ef ab 3d 80 6d 10 3e b4 e2 94 bd 6e 2b 22 3e
       0.08395375 0.14104271 -0.07269803 0.1583688
000150 c4 37 24 3e ff 77 f4 3d 15 a6 d6 3d d1 59 05 be
       0.16036898 0.1193695 0.104808964 -0.13022543
000160 94 bf da 3d d6 9e 8e 3e e3 da e1 3d cf 63 05 be
       0.10681072 0.27855557 0.110280775 -0.13026355
000170 68 86 e1 3d 8e 03 7e bd f7 75 fa 3d 45 d0 61 bd
       0.11011964 -0.06201511 0.12229531 -0.055130262
000180 19 ee 27 3e f8 c3 f2 3c 4a 15 f4 3d 0a cf 6f 3d
       0.16399421 0.02963446 0.11918123 0.058547057
000190 22 53 3f be 17 2b 62 3d 79 04 01 bd a2 b7 c0 3c
       -0.18684056 0.055216875 -0.031498406 0.023525063
0001a0 69 6f 60 3e 0f 08 97 bd 98 44 a7 bd 11 8c d4 bd
       0.219175 -0.07374584 -0.0816738 -0.10378278
0001b0 f4 8d f6 bc d8 58 3e 3e 2b 7e a4 3d 20 99 bb 3d
       -0.030096985 0.18588579 0.08031877 0.09160066
0001c0 87 87 c5 3d e1 0a 0d 3e fc d3 d1 3e 18 3f fc bc
       0.096449904 0.13773681 0.40982044 -0.030791804
0001d0 ff db cf 3e 5a 97 d8 bb f9 a6 b4 3d b8 f8 fa 3d
       0.4059753 -0.0066098394 0.0882091 0.122544706
0001e0 7b f3 7e 3e 21 3a b4 3e 4d e2 87 3d bb 0d ff bd
       0.24897568 0.352006 0.0663496 -0.12453791
0001f0 fd a0 17 bd d4 0e c1 3d 51 8f 1f 3e 1a fe 29 3a
       -0.037018765 0.09426656 0.15582015 0.00064847025
